model/actor.pt (torch_old, 548558 bytes, 10 tensors)

fc1.weight f4 [400, 33]
00000000: 2650 cf3e 817d d23e 45e4 893e ff08 89be
00000010: 1bb9 5b3f 7d35 773d ab62 cb3e 403c 1fbd
00000020: b982 20bf 5372 bfbd 3b50 983e 14c2 ab3d
00000030: e748 053e dd3d 20be f1b3 643f 8b54 b3be
00000040: 07fc 873e 83a3 273e 0dd4 59be 859e 2bbd
00000050: 37b7 d3b7 eb09 2bbe e693 80bc 4c37 07bd
00000060: 3c4a 673e a357 10be 2d0e ae3e 003a 323f
00000070: 33d9 80be c965 4b3d 702a 33bf b74f eabc
00000080: 3e59 903f ef15 453c f1f6 083f 723e fd3d
00000090: e52f bebe ebe2 ac3c e8a1 19be f533 883e
000000a0: 1b66 b73e 8d86 80be 2990 d13c f206 5ebc
000000b0: 36b0 94bd 19b7 7cbd cfe3 a53d b894 f8be
000000c0: 1b0f ccbe dc12 d93d 02e7 f6bd 43c7 a8be
000000d0: 98e5 d13d a1a3 883d b024 253e 21dc 063c
000000e0: 68bb bf3e 0abc 1ebe c97e c1bd 8eae 4e3d
000000f0: e434 0f3f 9267 f03e c3af 28bd d2b4 04bf
00000100: ec03 3bbc 0371 fd3f f377 37be 60fc b63e
00000110: bb65 afbd 92fb f2be 93f8 873d 280b 0ebf
00000120: 7ae6 953e 8e62 993e f864 e53e 56c3 6bbe
00000130: f5b7 33bd 1a5f ec3d c0f8 423e dbc8 74be
00000140: d11c 393f 4d15 c03d 925f 8cbc 7c8d 0fbe
00000150: 4941 a7be fbba 733e 8cb4 593d 2043 fb3d
00000160: 5885 593d db78 a6be d543 863e 99a5 28be
00000170: 181b 423e d0d6 603f eace 03be ecd4 0bbd
00000180: 8f94 70bf 2bb2 3c3d 2de5 ffbd 1c0b 3e3e
00000190: b52a b6bd 465b c2be 1c3a 5dbe 8e6e 8bbe
000001a0: a220 00bf db78 c23d 59ea 8ebd fd6e 3c3d
000001b0: 2f9f 9ebe efef 01bb b4fa 12bc 510c a2bd
000001c0: 37c3 bbbe 6565 583e 543e ed3e 1fa2 babe
000001d0: af04 d53d a8dd b73e bb58 9fbd b919 6fbd
000001e0: 287e 7a3d da15 9ebd 2aeb fdbc e683 8b3d
000001f0: cf42 073e 7f20 e33e ed93 c33e 053a a7bd
00000200: 0058 54b8 d676 d7be 8003 08ba 4f2b 4540
00000210: 33a5 fcbd 9ee3 993f a43f d5be 1fd2 17bf
00000220: 3995 773e 7beb 683c 5e76 443e fa01 883d
00000230: edd3 733e 2524 b3be bdc4 2a3e 0c92 48bc
00000240: 4bf2 0e3d c59b 2ebe 78bf be3e 02a0 a73d
00000250: efa4 a5bc 3e4a 82be 73f8 4b3e 6279 82bd
00000260: cb22 38bd d154 833d 8b4d 9fbd 2b15 92bc
00000270: da67 5dbe 2856 20bc b203 a03e 9827 323f
00000280: de1f 743d e080 1bbd cdaa 38bf 68c4 19bc
00000290: f0da df3c fbac e7be 5366 ca3e f117 f43e
000002a0: d741 04be b68d b03d 1e5c bf3e 3553 f83e
000002b0: 384a dbbe d164 01bf 863a bcbd 3a0c acbd
000002c0: 6d93 663e 1ec0 f63b 0406 ffbe e6b1 fe3e
000002d0: 2ab4 473e 804e 89be 4654 dcbe 60e4 95be
000002e0: 7171 acbc af31 113e 3313 42bc 55e5 72bd
000002f0: 1140 2abe 1448 ab3e 7a98 45bc 0803 fc3b
00000300: 137a 2c3f da46 3e3e 8927 403d d2c4 20bf
00000310: c03e 713a 7598 febc 07b9 a83f 6196 e23e
00000320: 3ce6 c2be c8d5 d73e 0a6d 503e eafa 12bf
00000330: 4043 f03d 7d01 f9bd a1c7 273d b81e b83e
00000340: ce8f ed3e 9427 04be f94b d83d 21c3 b0be
00000350: fd19 3dbf 2df6 c7bc 8e01 9f3b eb36 47be
00000360: d939 babe 2882 2e3e fc48 053e 3773 dfbd
00000370: 4846 66be cae4 9a3b 50c1 adbd 9f4a 23be
00000380: f9f0 e2be f9a1 b33e d917 763e 7f70 2fbd
00000390: 6f53 bebe ace8 2c3c dd60 673e e7c9 15be
000003a0: de01 c93e b4cb 9ebc 229a d0be 12d4 a6bc
000003b0: a254 4f3d 5487 743d b7b9 84bd da70 d93d
000003c0: 2d27 90bd 7fe3 0e3e 79ba de3c 8cdb 613d
000003d0: 0fc4 76be 7825 e33e f212 633e d07b 11bb
000003e0: 3ccf 8bba 0542 9bbd 5fba 843e db47 003d
000003f0: 0236 25be f066 2d3e 7f31 1cbd 390b 313d
0.40490836 0.41111377 0.26931968 -0.26764676 0.85829324 0.060353745 0.39723715 -0.03887582
-0.62699467 -0.093479775 0.2974871 0.08386627 0.13016091 -0.15648599 0.8933707 -0.3502544
0.2655947 0.16370969 -0.21272297 -0.041899223 -2.5238476e-05 -0.16703002 -0.015695523 -0.03301172
0.22586912 -0.14095931 0.3399519 0.6961975 -0.2516571 0.049657617 -0.6998663 -0.028602464
1.1277235 0.012029155 0.535018 0.12365426 -0.37145916 0.021104297 -0.15003169 0.2660214
0.35820088 -0.25102654 0.025581436 -0.013551461 -0.07260172 -0.061698053 0.08100092 -0.48550963
-0.39855275 0.105993 -0.1205578 -0.32964525 0.1024887 0.06671835 0.16127276 0.008231194
0.37447667 -0.15501419 -0.094480105 0.050459437 0.5594008 0.46954018 -0.041183244 -0.5183841
-0.011414509 1.9800113 -0.17916851 0.35739422 -0.085643254 -0.47457558 0.06639209 -0.55485773
0.29277402 0.29958004 0.44803596 -0.23023733 -0.043876607 0.11541577 0.19040203 -0.23904745
0.72309595 0.09379063 -0.017135415 -0.14018816 -0.32666996 0.23801796 0.0531507 0.122686625
0.053105682 -0.3251408 0.26223627 -0.1646942 0.18955648 0.8782778 -0.128719 -0.034138605
-0.9397668 0.04606835 -0.12494884 0.18558925 -0.088948645 -0.3796026 -0.21604198 -0.27232784
-0.50049794 0.094957076 -0.06978292 0.046004284 -0.30980822 -0.001982685 -0.008970905 -0.079125054
-0.36672375 0.21132429 0.46336615 -0.36451814 0.10401284 0.35911298 -0.07780596 -0.05837414
0.06115547 -0.077190116 -0.030995924 0.06812267 0.13209079 0.4436073 0.38198796 -0.08165363
-5.0626695e-05 -0.42082852 -0.000518851 3.0807683 -0.12336197 1.2022588 -0.41650116 -0.59304994
0.24178018 0.014216299 0.19185778 0.06641002 0.23811312 -0.34988514 0.16676612 -0.012241852
0.034899037 -0.17051609 0.37255454 0.08184816 -0.020220248 -0.25447267 0.19918995 -0.06370808
-0.044955056 0.06412662 -0.07778462 -0.01783236 -0.21621647 -0.009786166 0.3125282 0.69591665
0.059600703 -0.0379647 -0.7213562 -0.009385206 0.027326077 -0.4524916 0.39531192 0.47674516
-0.12915741 0.08620779 0.37374967 0.48500982 -0.42830062 -0.5054446 -0.0919085 -0.084007695
0.22517176 0.0075302264 -0.49809277 0.497451 0.19502321 -0.26817703 -0.43033046 -0.292758
-0.021050187 0.14179109 -0.011845398 -0.05930074 -0.16626002 0.3345343 -0.012060279 0.007690791
0.6737377 0.18581715 0.046912704 -0.62800324 0.0009202771 -0.031078557 1.3181466 0.44255355
-0.3806628 0.4215529 0.20354095 -0.57414114 0.11731577 -0.12158487 0.040961865 0.35960937
0.46398777 -0.12905723 0.10561366 -0.34523872 -0.7386778 -0.024409378 0.0048524803 -0.19454543
-0.3637226 0.17041838 0.13016123 -0.10910647 -0.22487748 0.004726981 -0.08484137 -0.15946434
-0.44324473 0.35084513 0.24032535 -0.042831894 -0.3717303 0.01055352 0.22595544 -0.14627801
0.39259237 -0.019384243 -0.40742594 -0.020364795 0.05061782 0.05969937 -0.06480735 0.10617228
-0.07038722 0.1395397 0.027188526 0.055141017 -0.24098228 0.44364524 0.22175196 -0.0022199042
-0.0010666619 -0.075809516 0.2592344 0.031318527 -0.16133884 0.16933799 -0.03813314 0.043223593

fc1.bias f4 [400]
00000000: af91 4bbf 2628 1cbf df3c 3ebf 81af c1be
00000010: b7a2 54bf 9ea2 4ebf 12fe f3be 576f 8ebf
00000020: 5e65 82bf cec5 42bf 6226 21be ac35 58bf
00000030: 06be 573e f991 81be cc36 2bbf 6fdb 3cbf
00000040: a7aa aabd 60e3 5cbf eb8d 77bf 598b 0abf
00000050: bf0b 15bf 096d 61bf 67b9 fdbe 5ba7 16bf
00000060: 47fa 1dbd a70b 1cbf 5753 bcbe d66d eabe
00000070: d135 1fbf 711c 27bf 5662 6cbf 0564 ebbd
00000080: d592 c6be efee f2be 4eb1 1fbf 6ed9 78be
00000090: 53e5 07bf cb6e cfbe 0460 a5bd 66c3 11bf
000000a0: a35f 1abf b9b9 55bf f431 6d3e ca16 58bf
000000b0: 93f6 28bf 387f d7be da18 72bf 1ea4 87bd
000000c0: e4ae 96be f36e 70bf 6fe2 2abf 11c5 42bf
000000d0: 9321 5dbf e781 6abf d376 2dbf 6305 cfbd
000000e0: 01cb 25bf 3dbb 14bf b7cb 1abf 8ec6 f6be
000000f0: 57d7 53bf 1259 5bbf 155e cfbe f32b 00bf
00000100: fb62 20bf f5f3 1fbf 8797 62be 190d 7cbf
00000110: 26b1 7fbf 8345 b8be ea41 83bf 711b 1dbe
00000120: 6fbe 6bbf a4d6 613e 302f ffbe 3719 e03e
00000130: 9fca 33bf 602e 67bd dafd 64bf a754 3dbf
00000140: 7fd3 70bf 2f5c 4bbf 78c0 3bbf 6ce2 20bf
00000150: 63b1 2bbf e0e8 05bf 15c8 403c 9298 42be
00000160: d703 b3be 3347 80be b5d0 3dbf 6880 2cbf
00000170: 6069 0cbf 61b4 27bf ca4d 3fbf c164 e9be
00000180: 96b3 5dbf 5024 9dbe 67ca d5be 0df6 febe
00000190: 5578 14bf 6271 213e 0ac1 63bf 9c6f 1fbf
000001a0: 15fd b0be 485a 59bf 7b6b 0fbf a2a7 00bf
000001b0: 5e88 1ebf e45b f7bd 74c6 94be 8277 d6be
000001c0: 50f5 45bf ee61 11bc 6f6e 13bf 7e49 ee3d
000001d0: 63cc 05bf 77b7 72bf 93bd 42bf 2173 19bf
000001e0: 4685 96be 2500 8cbf 9aa5 febe 3292 f0bb
000001f0: 85b1 8abf 53e7 c4be 1e77 5bbf 85c3 1cbf
00000200: 061f 06bf cd37 f1bc 8e88 65bf 07bb 13bf
00000210: 51a6 2cbf a87f d9bd 2e8d 5abf f9d3 f0be
00000220: 6a7d babe 092b 06bf e3a9 9ebe 1d08 4dbf
00000230: 8aa3 d0be b4f7 c7be 7c98 8dbf d603 6abf
00000240: 8c6a 5fbf ee75 4c3e 569b 3dbf fab5 7bbe
00000250: f9b6 58bf acb5 03be 2ad7 ecbd b8ad 39bf
00000260: ebee a5be 6333 15bf a4c1 8fbe 626a 80bf
00000270: 78d9 66bf 19af 8fbe 549b 27bf fda1 8bbf
00000280: 4b8e 63bf 6fe9 66be 7901 8fbe 9eb6 003f
00000290: 47d8 143c e8a1 08bf 40c6 67be eb4c c3be
000002a0: 6768 f7be c54f 13bf 8fd2 8fbe 17d0 72bf
000002b0: 1c0d 53bf 310d 68bf 81b2 64bf 9458 cb3e
000002c0: aff3 d93d f5e1 d5be 8786 1c3e bec5 85bf
000002d0: f3da af3e ed8d 1abf deca 06bf 5a74 01bf
000002e0: 5550 77be 1402 06bf 2d54 56bf fa9e 56bf
000002f0: 4708 b5be 18c9 3ebf 3d6d 3ebf fd19 f3be
00000300: b778 53be edb6 003f c35e aebe d946 42bf
00000310: 5a25 23bf 10e4 3bbf e811 60bf 0a7b a6be
00000320: 634f 21bf a819 40bf d214 48bf 9942 463e
00000330: 1c53 36bf a3bd 4abf 53f7 00bf 7187 2ebf
00000340: 9358 3ebf 93e6 6abf 02bd 66be bef9 33bf
00000350: f564 58bf 309e 02bf d4e6 f6be f093 76bf
00000360: 7e42 31be 2793 5dbf c5e1 27bf c02f 4dbf
00000370: c2fb 2fbf 80da 6bbf 3441 49bf 2085 98bf
00000380: f2cd b2be 4d95 53bf d109 fbbe 69b9 3fbf
00000390: cbcc 16bf caa1 ccbe 51d3 47bf 635e 39bf
000003a0: ad5a 80bf 4524 75bf 5f92 50bf 21ea 66be
000003b0: 1787 e9be 4f35 88bf c0f0 69bf 19c2 8abf
000003c0: d44c f6be e18c 45be f2e6 80bf 0d40 23bf
000003d0: 0346 3dbf a08e 44bf fc45 2abf d589 e6be
000003e0: fa07 06bf 9e5a 3fbf 78a3 51bc 489e 23bf
000003f0: 46aa 35bf f12a f23d 5a7a 71bf b9c7 94be
-0.7951917 -0.6099876 -0.7431163 -0.3782921 -0.83060783 -0.80716884 -0.47654778 -1.1127728
-1.0187185 -0.76083076 -0.15737298 -0.84456897 0.21068582 -0.2530668 -0.6688049 -0.7377233
-0.083333306 -0.86284447 -0.96700925 -0.5411888 -0.5822105 -0.88057 -0.49555513 -0.58849114
-0.03856876 -0.6095528 -0.36782333 -0.45786923 -0.6219149 -0.65277773 -0.9233755 -0.114936866
-0.387839 -0.47447917 -0.6237992 -0.24301693 -0.53084296 -0.40514216 -0.08074954 -0.5693878
-0.6030218 -0.83486515 0.23163587 -0.84409773 -0.6600124 -0.42089248 -0.9456917 -0.066231
-0.29430306 -0.93919295 -0.6675176 -0.7608195 -0.86379355 -0.91604465 -0.67759436 -0.10108449
-0.64762884 -0.580982 -0.60467094 -0.4819836 -0.8275046 -0.85682786 -0.40501466 -0.5006706
-0.6265103 -0.62481624 -0.22128116 -0.98457485 -0.9987968 -0.35990533 -1.025449 -0.153425
-0.92087454 0.22054535 -0.4984069 0.43769237 -0.7023105 -0.05644071 -0.89449847 -0.73957294
-0.9407272 -0.79437536 -0.7334056 -0.6284549 -0.67067546 -0.52308464 0.011766453 -0.19003513
-0.34963867 -0.2505432 -0.74146587 -0.6738343 -0.5484829 -0.6550961 -0.7472807 -0.45584682
-0.8660215 -0.30691767 -0.41755983 -0.49797097 -0.5799611 0.15765908 -0.8896643 -0.6227968
-0.34568086 -0.84903383 -0.5602338 -0.5025579 -0.6192683 -0.120780736 -0.29057658 -0.41888052
-0.7732744 -0.008873446 -0.57590383 0.11635111 -0.52264994 -0.94811195 -0.7607052 -0.599413
-0.29398555 -1.0937544 -0.4973572 -0.0073416466 -1.0835425 -0.38457736 -0.85728633 -0.6123584
-0.5239109 -0.029445553 -0.8966149 -0.57707256 -0.6744128 -0.106200516 -0.85371673 -0.47036722
-0.36423808 -0.52409416 -0.30988988 -0.80090505 -0.4074977 -0.3905617 -1.106216 -0.91412103
-0.8727195 0.19966862 -0.7406515 -0.24581137 -0.84654194 -0.12862271 -0.11564477 -0.725307
-0.32408842 -0.58281535 -0.28077424 -1.0032465 -0.9017558 -0.28063276 -0.65471387 -1.090881
-0.88888997 -0.22549985 -0.2793081 0.5027865 0.009084768 -0.5337205 -0.2263422 -0.3814462
-0.4832184 -0.57543594 -0.2809033 -0.9484877 -0.8244188 -0.9064513 -0.89334875 0.39716017
0.10642182 -0.41773954 0.15285693 -1.0450971 0.34346732 -0.6037281 -0.526533 -0.50568163
-0.24151738 -0.5234692 -0.8372219 -0.8383633 -0.35357878 -0.74525595 -0.74385434 -0.47480765
-0.20651518 0.5027912 -0.34056672 -0.75889355 -0.6372887 -0.7339487 -0.8752732 -0.32515746
-0.6301176 -0.7503915 -0.7815677 0.19361342 -0.71220565 -0.7919561 -0.50377387 -0.6817542
-0.74353904 -0.9175808 -0.22533038 -0.7030295 -0.8452905 -0.51022625 -0.48222983 -0.96319485
-0.17310521 -0.8655266 -0.6557887 -0.80150986 -0.68743527 -0.9213028 -0.7861512 -1.1915627
-0.3492275 -0.8264969 -0.49030927 -0.7489229 -0.5890624 -0.39967185 -0.7805682 -0.7240965
-1.0027672 -0.9575847 -0.81473345 -0.2255025 -0.45610878 -1.0641268 -0.9138298 -1.0840484
-0.4810549 -0.19292022 -1.0070479 -0.6376961 -0.73934954 -0.7678013 -0.6651304 -0.45027032
-0.5235592 -0.74747646 -0.012795322 -0.63913393 -0.7096294 0.11824597 -0.9432732 -0.29058626

fc2.weight f4 [300, 400]
00000000: e62e bf3e 263d e5be fd1a ef3d 5d18 24be
00000010: 4406 28be 7798 63be cc25 79bf d331 2a3e
00000020: 075d e63d aacc b3be 7f98 d4be 40ef d03e
00000030: 09fb 7b3d 7602 b03d fc86 e4bd 3101 883e
00000040: 6128 ee3d 8998 0dbf b3f4 6dbe 8b7e 66bc
00000050: 2f75 833e c33d 5c3e f37f 87be e149 a2be
00000060: 6276 c63e c75d 00bf ded2 3abf 8502 d6be
00000070: c297 b3bd 3114 8fbe b2eb 36be 3449 a7be
00000080: 7430 2cbf 607a e1bd 3d0e 21bf a123 fb3e
00000090: eb91 70bb 6a35 22be 140a efbd 61c9 24bf
000000a0: 6ba1 3a3e bc10 d03d bd2e 9b3d 5736 143c
000000b0: 5a7f 063e e6af e8bd 3317 7c3e a62b b03e
000000c0: 5738 b83e 7b50 86bd 5fc5 cb3c 7f64 afbe
000000d0: fb10 993d d755 3abb 9d10 02bf 0475 09be
000000e0: 8bcd e53e 2749 3cbe d277 653e 4ab8 06bf
000000f0: 9dca 87bd f81b 0d3e 81b3 a6be a4f9 debe
00000100: 1e79 e43c d04a e03e 1a38 08be 15a5 3e3d
00000110: 76c3 003e 9b58 01bf 2ce9 9c3e b323 273f
00000120: 8969 8d3e c48b 003f fc32 b23e 9d87 eb3e
00000130: 0105 e4be 4b09 5e3e ebc6 4e3e 291f 2dbe
00000140: dd28 503f 887a 283e e706 833d 0716 613d
00000150: b82d 3ebf 2169 e4be 07d5 cebe 0c4e 2839
00000160: 4be4 c5be 311f 97bc 847b e83e 8456 52bb
00000170: 3bbb 8bbe 63c4 86be f425 e03e 7a73 c1be
00000180: 5477 363e e05e 863e 8aaa 613e 9f1b d23d
00000190: 84ce f9be 350d f53e 7626 533d 2fd9 e93d
000001a0: 78f2 dc3c 4bfa 3ebc a6c0 14be 70bb 35bf
000001b0: 5f14 5e3e 4338 923e d1b6 513d ddc1 ecbe
000001c0: 5572 45be 8367 cb3e 5d47 d5bd 4f6e 0bbf
000001d0: 2f5f 5abe fe28 313f 9d18 193f 8f55 8abe
000001e0: df36 4bbf 6c14 653d 7e0c 4bbc a50b 803e
000001f0: 9fb1 783e 875f 9a3e 6af8 02be 615a a3be
00000200: 4318 043f 9968 1abf 0ab3 42bd c9ab 04be
00000210: 8d3d 6dbf 5966 1cbf 5a55 f93c 463b 96be
00000220: 5667 29be 09e1 663e 4543 123f a256 bc3d
00000230: 6055 8ebc 6756 e6be 8af8 7e3d 5b17 f03d
00000240: fda1 c03d 9e7e be3c d206 f2bb 29d3 d6be
00000250: e78d 76be 27fd 8f3c d930 ca3e 0738 a6be
00000260: 0cfc 91bf e7fc 1dbe 6b77 fa3e 0f13 023e
00000270: d958 03bf ba50 a0be 7518 4fbf d64f 5d3e
00000280: 6f72 b0bc 5193 4cbe 7b11 803e 81dc b43e
00000290: ff6a 2a3f 4c7c 04bf c269 9dbe 43c6 943e
000002a0: 86b1 03be 0326 a63e be3d c1bd 978a 5e3c
000002b0: bd06 e93c 4ab9 ff3e 069e 46bf 08a6 343d
000002c0: 9ca6 96bd 2f2f 28bf db60 1fbe 8e1a 2d3f
000002d0: 8a68 d53e 48f3 eabc 6d1f 92be befc 343c
000002e0: fba0 11be 6b83 853e 0ae0 18bd 173a 11bf
000002f0: 9375 af3e 953c 7fbc 0b5d a3bc f90c 283e
00000300: 0672 973c e5c1 723d b496 b1be f7a4 9d3d
00000310: 63c8 7b3d 46ec 243e 2a18 e93e ce96 6e3e
00000320: 5520 053e b7a5 b53e ccc8 a83e 292d cb3b
00000330: 4ef4 35be f1e9 40bd 5e2d e23e 4011 f3bd
00000340: 33c4 87bd 75ad d6bd 99ac a6be 5791 fdbe
00000350: dc84 493d bcf4 193f ada2 6e3d dbd7 95be
00000360: 5a8a 003f febb 393f aa18 1abe 8246 22be
00000370: 7125 023e d368 5dbe 9e44 e2be 86cc 3d3e
00000380: b4a6 81be 3440 813c f5b0 8e3d 178c c23e
00000390: b76f ce3d 0b3f 943e 981f 58be 74c7 4ebe
000003a0: 1eab c13e bb81 88be 2574 84be 7363 72be
000003b0: ab33 a23d 3562 0d3e 75fa b03d efb1 233e
000003c0: 016c 56be 2798 1bbf ff8f 0f3e e308 11be
000003d0: 435b 1fbd b3aa 09bd 16f1 89be 4141 a4bd
000003e0: ae39 b33d 2ace 8c3c 82fb 3cbe 424a a0bc
000003f0: e891 b43e 0451 2fbe 0038 e73e 2344 9cbe
0.37340468 -0.44773215 0.116750695 -0.16024919 -0.1640864 -0.2222613 -0.973233 0.16620569
0.11248212 -0.35117084 -0.41522595 0.40807533 0.061518703 0.085942194 -0.11158559 0.2656341
0.116287954 -0.55310875 -0.23237877 -0.014068256 0.2567534 0.21507935 -0.26464805 -0.3169699
0.38762194 -0.5014309 -0.7297801 -0.41798797 -0.0876918 -0.27945092 -0.17863348 -0.32673037
-0.67261434 -0.11009669 -0.6291235 0.4905062 -0.0036708068 -0.15840688 -0.11671844 -0.6436978
0.18225639 0.10159442 0.07577274 0.009046159 0.13134518 -0.11361675 0.24618225 0.344083
0.35980484 -0.06558319 0.024874387 -0.3425636 0.07473942 -0.0028432512 -0.508066 -0.13423544
0.4488338 -0.1838728 0.22408989 -0.5262495 -0.06630442 0.137802 -0.32558826 -0.43549836
0.027889784 0.43807077 -0.13302651 0.046544153 0.12574562 -0.50525826 0.30646646 0.6528885
0.2761958 0.50213265 0.34804523 0.46001902 -0.44535068 0.21683232 0.20193069 -0.16906418
0.8131235 0.16452992 0.06397801 0.054952648 -0.7428851 -0.44611457 -0.40396902 0.00016050803
-0.38650736 -0.01844749 0.45406735 -0.0032095024 -0.27291283 -0.26321706 0.43778956 -0.37783414
0.17818958 0.2624426 0.22037712 0.102591746 -0.4879037 0.4786164 0.05155035 0.114183776
0.026971087 -0.011656354 -0.14526615 -0.7098913 0.21687458 0.2855855 0.051199738 -0.46241656
-0.19281895 0.3972741 -0.10414002 -0.5446519 -0.21325372 0.69203174 0.5980318 -0.270184
-0.793806 0.05592768 -0.012393115 0.25008884 0.24286507 0.30151007 -0.12790075 -0.3190489
0.5159952 -0.60315853 -0.047534026 -0.12956156 -0.92672044 -0.6109367 0.030436207 -0.29342097
-0.16543326 0.22546782 0.57133895 0.091962114 -0.017374694 -0.44987795 0.062248744 0.11723205
0.09405897 0.023253735 -0.007386067 -0.41957977 -0.24077569 0.017576767 0.39490393 -0.3246462
-1.1405044 -0.15428506 0.48919234 0.12702583 -0.51307446 -0.3131159 -0.80896693 0.21612486
-0.021538941 -0.19978072 0.25013337 0.3532448 0.66569513 -0.5175216 -0.3074475 0.29057512
-0.12860689 0.32450876 -0.094356045 0.013582847 0.028445596 0.49946052 -0.77584875 0.044103652
-0.07355997 -0.65696996 -0.15564291 0.67618644 0.4168132 -0.028680459 -0.285396 0.011046587
-0.14221565 0.26076826 -0.037323035 -0.56729263 0.3426939 -0.015578409 -0.019941827 0.16411199
0.018486988 0.059266943 -0.3468529 0.0769748 0.0614704 0.16105756 0.45526248 0.23299715
0.13000615 0.35477993 0.32965696 0.006200452 -0.17768976 -0.047098104 0.44175237 -0.118685246
-0.06629219 -0.10482303 -0.32553557 -0.49524948 0.04919897 0.6013906 0.05826061 -0.29266247
0.5021111 0.7255248 -0.15048471 -0.15847209 0.12709595 -0.21622019 -0.44192976 0.18535051
-0.25322497 0.015777685 0.069673456 0.37997505 0.10079902 0.28954348 -0.21105802 -0.20193273
0.37825865 -0.26661476 -0.2586986 -0.2367075 0.07920011 0.13806994 0.08641521 0.15985845
-0.20939638 -0.6077904 0.14019774 -0.14163546 -0.038905393 -0.033610057 -0.26941746 -0.08020259
0.08751236 0.01718815 -0.18455318 -0.019566659 0.35267568 -0.17120749 0.45159912 -0.30520734

fc2.bias f4 [300]
00000000: f0e1 4bbf b431 54be 2376 1bbe f243 2bbf
00000010: 321e a4be 0b56 85bf 083d 21bf bfd3 95be
00000020: 09cc 22bf aef6 1bbf 41af 59bf 488f e7be
00000030: ec09 6abe 4437 71bf 8fda 57bf 5367 83bd
00000040: 5664 24bf ce6c 0fbe a281 3cbf fe7e 38bf
00000050: af9b d5be 0213 5bbf 849c 52bf 1c1b 3cbf
00000060: 1781 a8bf 2680 61bf 8f8a 94bf 5fd2 36bf
00000070: de88 f8be 12e8 15bf 2ac2 6abf 18d4 4ebf
00000080: 0daf 0dbf 60e7 6fbf d301 8dbf b097 2ebe
00000090: 8b4f 2cbf b912 51be d8f6 82bf 7129 a1bd
000000a0: 51c3 73be 3a97 24bf 578b 4fbf 769a 53bf
000000b0: 7764 c7be a6e5 37be e59a 09be a541 76be
000000c0: 7e6b 15be 7329 35bf 0349 aabe 3946 86be
000000d0: 26e2 43bf 64aa 8bbe a36d 4ebf e5da d2be
000000e0: 4781 ccbe 392c 7cbe eba2 e7be 7da1 7dbf
000000f0: f863 22bf 200a e5be 60c2 7cbf 8b68 04be
00000100: e05c 143d bdba 68bf 4935 fcbe ea85 62bf
00000110: 72dc a8be 11ef 11bf 237f 99bf b1bc 33bf
00000120: 0a05 5bbe 1111 2dbd 38bf d2be 28fc 62bf
00000130: 29a8 80bf eb13 70be 0339 b1be fc5c ebbe
00000140: 6f2d bebe 4350 a8bc cd70 46bf 739b 19bf
00000150: cace 03bf 3635 54bf a2f9 85be 9089 1cbf
00000160: 2662 81bf 1768 bebe 80fc 4ebf dc7b fcbe
00000170: fb6e 7ebe 839f 1abf c356 3fbf c04c c4be
00000180: 0e50 29bf 8b79 2cbf e8fb 3cbf 31ba 27bf
00000190: ef43 25bf 58c8 8cbe d099 32bf 1ae4 1fbf
000001a0: f2d9 25bf 01f3 18bf 14cf 63bf a9e4 10bf
000001b0: 20f7 06bf 2ab2 66bf 68c6 7abf f3f5 6fbf
000001c0: c7c2 77bf b46c 26bf fe77 3dbf 0f18 9dbd
000001d0: 2758 81be 5fdb 0fbf f2ee 8dbf 1bae 91bf
000001e0: 84fd 71be b161 6ebf ab63 92be 7d2d 13bf
000001f0: 993c 8dbe aaa7 47bf ca50 56bf b84c 4fbe
00000200: e42d 79bf 0565 00bf 7d0d 70bf 2a79 3ebf
00000210: aac8 8abe b94d 47bf 3be5 29bf edd7 5cbe
00000220: faae 08bf b140 59be 9c63 fdbd cc2c 98be
00000230: 66d8 60bf 8222 9cbe dee5 20bf 55a8 83bf
00000240: f742 33be ad38 10bf 6a16 47bf 80c0 85bf
00000250: 1cae debe eb96 debd b1fb 69bf 4893 27bf
00000260: 6214 3dbf f34c 44bf c86b a8be 32df f6be
00000270: e347 b4bf e17c 98bf f24b e1be 6956 5ebf
00000280: 8cb3 54bf 39b9 31bf 0e44 6cbf a151 f7be
00000290: bef3 36bf 6bd4 aebd de40 8fbf 7733 6ebf
000002a0: c10a 64bf 7244 14bf c3c8 6bbf 63e1 0ebf
000002b0: 717c d7be c1f5 4abe 6e21 30bd 0bfa b1be
000002c0: a999 b9be 77f4 0dbf 7ab0 17be 9f60 d0be
000002d0: 8137 09be 4814 26bf e758 67be 4434 8fbf
000002e0: 60e2 69bf 418b 6cbf 6ae0 71bf 298d c7be
000002f0: 63a1 f4be 15ec a6be e396 b6be bb25 b2be
00000300: 46a4 85bf b760 92be dd20 a3bf 2af6 11bf
00000310: 5b55 e7be 3d4d 8abf f223 2abf a8ce 13bf
00000320: 6ab1 cabe 0843 c2be 97f2 cabe a453 2dbf
00000330: d828 d6be 61e5 19bf 0496 e3be 8d21 edbe
00000340: 1651 f3be 0a8e 0cbf ac82 4abf 4c9a 5ebf
00000350: d10e 39bf c60e 0cbe 9551 20bf 9a06 15bf
00000360: a909 39bf 5146 a7bf 4309 19bf f21a babe
00000370: c7c1 4dbf 0798 08bf 58c3 39be 04b8 33be
00000380: 005a d7bb 6426 86bf 5d1d 89bd 9076 36bd
00000390: 6b01 74bf 8ca7 99be 6e73 98be 5785 f6be
000003a0: cabf 79bf 76bf 1bbf 346e 28bd 2a8f debe
000003b0: ae74 d3be a475 c9be fb43 44bf 0f05 71be
000003c0: b909 2abf eb6e 5dbe b492 14bf d502 0abf
000003d0: c007 0ebf 4b82 71bf dd1a 16bf 684a 8ebe
000003e0: 16b9 08bf 8e11 3bbf 54ed 33bf a9e9 fbbd
000003f0: 21e0 6dbf a2ca 82bb 5019 d1bd e1ed e1be
-0.7964163 -0.20722085 -0.15181784 -0.6690055 -0.32054287 -1.0416883 -0.6298375 -0.29263112
-0.6359258 -0.6092328 -0.8503304 -0.45226502 -0.22855347 -0.94224954 -0.8431787 -0.06416192
-0.642156 -0.1400635 -0.73635304 -0.72068775 -0.4172034 -0.8557588 -0.82270074 -0.73478866
-1.3164395 -0.88086164 -1.1604785 -0.7141475 -0.4854192 -0.58557236 -0.9170252 -0.8079238
-0.5534523 -0.93712425 -1.1016182 -0.17050052 -0.6730887 -0.20417298 -1.0231581 -0.078692324
-0.23804976 -0.64293253 -0.8107199 -0.82657564 -0.38943836 -0.17958698 -0.13437994 -0.24048479
-0.14591786 -0.7076637 -0.3325883 -0.2622545 -0.7651695 -0.27278435 -0.8063604 -0.41182628
-0.3994238 -0.24626245 -0.45241484 -0.99074537 -0.6343379 -0.44734287 -0.9873409 -0.12930505
0.036221385 -0.9090994 -0.49259403 -0.88485587 -0.32980686 -0.5700541 -1.1991924 -0.70209795
-0.21388641 -0.042252604 -0.41161513 -0.8866601 -1.0051318 -0.23445098 -0.3461381 -0.4596938
-0.37144038 -0.020546084 -0.7751587 -0.6000282 -0.5148741 -0.82893693 -0.26167017 -0.61147404
-1.0108078 -0.3718879 -0.80854034 -0.49313247 -0.24847023 -0.60399646 -0.7474176 -0.38339806
-0.6613778 -0.6737296 -0.7382188 -0.6551848 -0.64556783 -0.274966 -0.6976595 -0.6245743
-0.64785683 -0.59745795 -0.8898785 -0.5659891 -0.5272083 -0.90115607 -0.97958994 -0.93734664
-0.9678158 -0.6500962 -0.7401122 -0.076706044 -0.25262567 -0.5619411 -1.1088545 -1.1381258
-0.23631865 -0.93117815 -0.28591666 -0.57491285 -0.27585295 -0.7799021 -0.83717024 -0.2024411
-0.9733565 -0.50154144 -0.9377058 -0.7440363 -0.2710622 -0.7785297 -0.663654 -0.21566744
-0.53391993 -0.21216084 -0.123725146 -0.29721677 -0.878302 -0.30495077 -0.6285075 -1.0285746
-0.17506014 -0.5633648 -0.77768576 -1.0449371 -0.4349221 -0.10868629 -0.91399676 -0.6545911
-0.73859227 -0.76679915 -0.3289473 -0.4821716 -1.4084438 -1.191311 -0.44003254 -0.868506
-0.83086467 -0.6942325 -0.92291343 -0.48304465 -0.7146567 -0.08536609 -1.1191671 -0.9304728
-0.8907891 -0.5791694 -0.92103213 -0.5581266 -0.4208713 -0.1982031 -0.04300063 -0.3476108
-0.36250046 -0.5545115 -0.14813414 -0.40698716 -0.1340008 -0.64874697 -0.22592507 -1.1187825
-0.91361046 -0.92399985 -0.94483054 -0.38974884 -0.47779378 -0.3260199 -0.35661992 -0.3479441
-1.0440757 -0.28589413 -1.2744404 -0.5701624 -0.4518231 -1.0804821 -0.664611 -0.5773721
-0.3958848 -0.37941766 -0.39638206 -0.6770575 -0.41828036 -0.6011563 -0.4445039 -0.4631466
-0.475228 -0.54904234 -0.7910564 -0.8695419 -0.72288233 -0.1367751 -0.62624484 -0.582132
-0.72280365 -1.3068334 -0.5977976 -0.36348683 -0.80373806 -0.53356975 -0.18140924 -0.17550665
-0.006572008 -1.0480466 -0.06695054 -0.044546664 -0.95314664 -0.3001064 -0.29775566 -0.48148605
-0.9755827 -0.6083902 -0.041120723 -0.434686 -0.41299957 -0.39347565 -0.7666623 -0.23537086
-0.66421086 -0.21624343 -0.5803635 -0.5391057 -0.55480576 -0.94339436 -0.5863474 -0.27791142
-0.5340742 -0.7307366 -0.7028401 -0.123004265 -0.9292012 -0.003991441 -0.10209906 -0.441268

fc3.weight f4 [4, 300]
00000000: fc32 3ebf 6382 2ebf 60af 793f 2092 4dbb
00000010: 24f0 2bbf 0383 dbbe 45f1 0b3e a7d9 52be
00000020: 4308 d03f ace3 be3e 0cdc 37bd da50 7abf
00000030: a87f 5fbf 9bdf cabe 65af 2ebd 8a7c 24bf
00000040: 1e8c 723f be32 e43e dd49 213e 9233 913e
00000050: 15fd 36bf 1627 4abe 94e3 073f 9a11 dcbe
00000060: 508c 243d 3073 4ebd 865e b2be 3b3b 653d
00000070: 44f7 87bc f6f1 df3e 09cd 203e 14b1 203e
00000080: bffa 5a3f ab6c b1bc 298d 24be 6c02 353e
00000090: a316 27bf f348 0abf 8277 eabe 24e9 debe
000000a0: ec27 b8bd aab1 ff3d faaf 69bf 99d2 dfbd
000000b0: e56a 433e 346f a7be 9dea cf3e 7332 943e
000000c0: 8212 7e3f b70f c6be 92ce 5fbc 5a57 833e
000000d0: f983 9bbd dce9 ea3d fbc3 ca3e 2946 cb3e
000000e0: 0791 fcbd ef52 78be 143c 2bbe ecf4 233e
000000f0: 9ea1 073e 5b1e 24bf 5e4d 123f 443a b5be
00000100: 584d 39bd bdbb 003f bfd1 103f 90b4 e03d
00000110: d220 e6be 2828 84bd 1127 1ebe 5138 0abf
00000120: 4d21 1e3f e476 4f3f 6c39 fbbd 32d8 443b
00000130: 2d76 cf3c b1d1 cf3e 7b21 863e 0836 d53e
00000140: ca23 43bd bfb9 713e 2e04 a83e 0cec b2be
00000150: d01f 19bf 1925 ac3d 2032 183e cfdc 743f
00000160: b627 5fbf 4060 03bf 5d71 94bd 14d3 70bf
00000170: 634e 0b3f 9087 053c 1b80 513e 87d0 80be
00000180: d14a 0fbe 2adb 033f 5af0 adbe 4f60 a63f
00000190: 5d20 25bf b49f 3f3d f106 7a3d 4465 323e
000001a0: afc8 6b3c 036e 8f3f b5dc 9b3d cf6d 60bc
000001b0: 8b1d fabe 2808 563f 4ffe a53e f55b f33d
000001c0: 1c50 1a3e 45ed 8bbe 968b 9fbd ee48 433f
000001d0: 800c 163f 93b3 3ebe 9e9d a43e 5e59 643e
000001e0: f32c 1fbf 5e0b 3abe b6cb 643e 14df a23d
000001f0: a22f 873f 2e31 723e 4949 b9be 4a60 873e
00000200: 6693 07bd 17d2 17bf 9a15 0b3e 371d 15be
00000210: 8595 8abf 357e 78be fab3 df3e 4365 f23e
00000220: 1d26 d1be 5f7b cebe a33b 913f e667 12be
00000230: 58d8 e7be ca73 8a3e 3a84 ba3e bed1 d1be
00000240: 164e 40bf c078 1b3f e0c9 4f3e c17a b13e
00000250: d483 693d 4f8f 873f ec0a ed3e 5455 713e
00000260: 7912 20be 7468 573e 5fe4 e63d 650c 533f
00000270: bec3 1dbe be27 2a3e 76a4 0cbe 671c febe
00000280: 2e56 113f aba5 3ebf a28b 163e 1f9b 263d
00000290: 2c73 653f 8fdc 15be 1756 263e d7c6 c4bd
000002a0: a24c eb3c 4dc3 c33d 731d 27be fc35 8abe
000002b0: 550a ebbe b4e1 08be 9454 cfbe 4c7b babe
000002c0: 1fde 13bf 4425 073f 0c5e ed3e 66ac b8be
000002d0: b31e 893e 85e8 693e 1116 843d 5355 dcbe
000002e0: 5732 f3bd 31cb 02be a5a3 b13e 391f 18bf
000002f0: c51b 223f 6b7d d9be e7b4 c53e 7555 d63d
00000300: f26e 213e fced df3d 57f7 c0bd 00f6 c3be
00000310: 4dc3 a33e 328f bebe 3259 553f 05ce e73e
00000320: f0a9 3ebd b5c9 50be 6d5e b3be 1d82 0abf
00000330: 3689 2ebf cd05 a73e 0411 d83d cd77 1ebf
00000340: 10dc 8c3f 5d2e bb3f a4ba d03e e8e8 55be
00000350: 8c19 94be 8f93 1d3f f28d 01be 7d42 ca3e
00000360: 1544 b53e 6cec 383d 7e0e bcbe 3aaa 723f
00000370: a1b8 7ebe d69c 813f c40c 65bd 00ee b03e
00000380: 5a76 e0be 3f3e 24be 86f7 34bf 5856 673e
00000390: 8c65 80be 24b5 8bbe 17b7 5b3f adac 9a3f
000003a0: e1a4 b93e e59f 1ebf 8007 40be c6cf 1d3f
000003b0: 4e1d 91be ea0f babe 87b6 dcbd dde4 cb3e
000003c0: 96f5 073b 612a 03bf ada3 52bf 7ac3 7dbe
000003d0: 9367 9ebe 50a0 153e bbab 0abd 3479 13be
000003e0: 10e9 b0be 1d68 18bf be7f 853f 2b69 75bf
000003f0: 84d1 bc3d 4e61 ec3e 2746 3dbf 64eb afbd
-0.74296546 -0.68167704 0.97533226 -0.0031367615 -0.671633 -0.42873392 0.13666256 -0.2059084
1.6252521 0.37283075 -0.044887587 -0.9777962 -0.8730416 -0.39623722 -0.042647738 -0.6425253
0.9474505 0.44569963 0.15750833 0.28359658 -0.7147992 -0.19741473 0.5308163 -0.4298218
0.040172875 -0.05040282 -0.3483774 0.05596469 -0.016597398 0.4373929 0.15703215 0.1569255
0.8553886 -0.021658262 -0.16069473 0.17676705 -0.65268916 -0.5401756 -0.45794302 -0.43537247
-0.089919895 0.124850586 -0.91284144 -0.1092884 0.19083746 -0.3270203 0.40608683 0.2894474
0.9924699 -0.38683864 -0.01366009 0.2565258 -0.07593531 0.114703864 0.39602646 0.39701965
-0.12332349 -0.24250387 -0.16722137 0.16011399 0.13245246 -0.6410882 0.571493 -0.35396016
-0.045239776 0.50286466 0.5657005 0.109719396 -0.44946915 -0.06452972 -0.1544459 -0.5399218
0.6176956 0.8104079 -0.12266812 0.003003609 0.025324905 0.4058967 0.2619742 0.41642785
-0.047641553 0.23606013 0.3281569 -0.34945714 -0.5981417 0.08405513 0.14862871 0.9564943
-0.8716997 -0.5131874 -0.07248185 -0.9407208 0.54416484 0.008149996 0.20459025 -0.25159094
-0.13993384 0.5150629 -0.33972436 1.2998141 -0.6450251 0.046783164 0.061041776 0.17421442
0.014391108 1.1205448 0.07610456 -0.013698055 -0.48850664 0.83606195 0.32420585 0.11882774
0.15069622 -0.2732946 -0.07790296 0.76283157 0.58612823 -0.1862319 0.32151502 0.22299716
-0.6217796 -0.18168399 0.22343335 0.07952705 1.0561411 0.23651573 -0.36188725 0.2644065
-0.033099554 -0.59304947 0.13582459 -0.14561926 -1.082688 -0.24266894 0.43692 0.47342882
-0.4084939 -0.403285 1.1346325 -0.14297447 -0.45282245 0.27041465 0.36429006 -0.40980333
-0.7511915 0.60731125 0.20291853 0.34663966 0.057010487 1.0590609 0.46297395 0.23567706
-0.15632047 0.2103594 0.11274027 0.8244079 -0.15406701 0.16616723 -0.13734612 -0.49631044
0.56772125 -0.7447154 0.14701703 0.04067528 0.89628863 -0.14634918 0.16243778 -0.09608238
0.028723065 0.09558735 -0.16319828 -0.26994312 -0.4590632 -0.13367349 -0.40494215 -0.36422193
-0.57760805 0.5279124 0.46360815 -0.3606903 0.26781234 0.22842605 0.06449521 -0.43033847
-0.11874836 -0.12772824 0.34695163 -0.5942264 0.6332362 -0.424785 0.3861458 0.104655184
0.15764979 0.10934064 -0.09422176 -0.3827362 0.3198494 -0.37218624 0.83339226 0.45274368
-0.046548784 -0.20389445 -0.3503298 -0.5410479 -0.6817812 0.32621613 0.105501205 -0.6190155
1.1004658 1.4623524 0.40767395 -0.20889628 -0.2892574 0.6155328 -0.12651804 0.39503852
0.35403505 0.045147344 -0.36729807 0.94790995 -0.24875118 1.0125988 -0.055920377 0.3455658
-0.43840295 -0.1603937 -0.7069019 0.22591531 -0.25077474 -0.27286637 0.8582625 1.2083946
0.36258605 -0.6196273 -0.18752861 0.6164516 -0.2834267 -0.36340266 -0.10777002 0.39823046
0.0020745746 -0.5123654 -0.82281 -0.247816 -0.30938396 0.14611936 -0.03385518 -0.14401704
-0.34552813 -0.59533864 1.0429609 -0.958636 0.092196494 0.46167988 -0.7393517 -0.08589819

fc3.bias f4 [4]
00000000: f11d 86bd 8d77 4d3e abd6 a13d 8062 933d
-0.065486796 0.20065136 0.07902273 0.07196522

bn1.weight f4 [400]
00000000: 0135 4d3f 720b 663f 5b6b 443e 802e d83f
00000010: cd45 243f 4d39 433f 3d8b 5d3f bb45 823f
00000020: 50e7 923f 02e3 6d3f 300a 643e 7173 e03e
00000030: 5bb6 143f 274a 4b3f bb24 3f3f 76c9 5c3f
00000040: 967a 643f 0bd0 483f f18d 5e3f 4591 4e3f
00000050: c23a 343f 64c1 033f 8376 063f a3db 2e3f
00000060: b401 813f 1a19 d33e 3e23 733f 909c 283f
00000070: ec9a 213f facf 533f 7c29 633e b905 043f
00000080: dfe5 5d3f fdaf ac3e db53 963f be94 133f
00000090: ff45 e53e 4506 363f 5940 cd3e 6b15 c13f
000000a0: 0439 cd3e 0255 2c3f f705 233f ea99 ab3e
000000b0: 9b5c e93e 919b bc3e c094 4a3f a472 183f
000000c0: ba71 933f cfea 383f c4f6 b43e df6f 733f
000000d0: 0c1e 843e ddbe 8f3f e17f 163f 8d02 233f
000000e0: ca52 c83e 027e 183f c50c 6d3f dcf9 5f3f
000000f0: 6d62 ee3e 0391 443f 7cce ff3e fe2c bb3e
00000100: dd3b f43e a7e1 4f3f 4e9f 9f3f 482f 393f
00000110: a8ca a93e 9255 723f ab09 643f f0f6 8b3f
00000120: 438f 113f 439a 5f3f 401e 1c3f 24b2 613f
00000130: 7dc2 173f 1cb2 bd3e 889c a73e aa86 cd3e
00000140: d8b4 e23e 6620 fb3e 0dc4 1e3f f953 913f
00000150: 2290 893f 0eb8 d73e e673 453f a0af 083f
00000160: dc1f 013f 17f3 6c3f 3122 963e 2536 3c3f
00000170: c672 8b3f 2ad3 853f dc17 663e 712a 013e
00000180: 85d5 b53e fdb7 343f cab3 113f 2ec1 0e3f
00000190: 5762 513f a39f 2e3f 3baf a63e 5254 373f
000001a0: 5124 733f 3f51 0b3f 292b ee3e d78a 8c3f
000001b0: 3cdd 373f 38ef 163f 3f6e 823f 26d2 0b3f
000001c0: e315 fa3e 9035 df3f ab59 e43e fb72 733f
000001d0: 90f6 303f 32a4 afbe e788 9e3d 18a6 1c3f
000001e0: 1206 a73f 6c88 153f b662 303f bfe3 173f
000001f0: 4707 1f3f 5478 c43e 4dfa 813e fef1 b93f
00000200: b2c7 04bf bb3c 503f cfad 023f 8575 6e3f
00000210: 236b f23e 5a16 693f 9cf7 a93e a37d 663f
00000220: e6f5 af3e 7cdd db3e 0c06 0740 85dd f53e
00000230: 4219 1e3e bdba 253f 4ec4 d13e c68e 843f
00000240: 53ee 0a3f ee88 063f 01fd 453f 614b 453f
00000250: 40d7 353f 34fe 6b3e 0a3d 9f3f 09ad f73e
00000260: a0c6 d83f 2240 6c3f a897 0a3f beee 053f
00000270: a44e aa3e d782 813f 1a26 b13f 9a68 173e
00000280: 0b86 053f c01e 193f e159 8f3f 7396 853f
00000290: 91ba 9e3f 6941 4a3f 1967 483f 1b65 a33e
000002a0: 4d05 1b3f 5e30 443f d86b 193f 344b 8ebc
000002b0: 4415 273f 0294 793e 0cdc 673f f7da 1c3f
000002c0: 6a65 1c3f 46a1 2d3f 5376 a33f 6811 423d
000002d0: 1628 123f ad1c 1d3f 83a9 dc3e 59a7 e73e
000002e0: 76af 2a3f 0c2e 623f d96d 1a3f ff33 b13f
000002f0: 5ccf 183f 5a95 2a3f 952c 493f 5696 f83e
00000300: e643 ee3e 4749 a63f 7317 523f 298a ba3e
00000310: 0a1b b03e f0ea 343f bce4 743f bb35 113f
00000320: 516b e23e f003 0b3f cb14 1e3f 27e8 413f
00000330: 7dd3 bc3e 171a ef3e c64c 403f 24de bb3e
00000340: ce33 203f e436 ae3e e3cd 143f 2cab 8f3e
00000350: 0652 403e d9af ee3e 8370 e93e 2ff7 433e
00000360: 482b a93d ba3e 2c3f 7b09 6a3f 3335 ea3e
00000370: 8fcb 0d3f 5b55 5e3e 55bb 973f c778 e03e
00000380: 2912 283f 1ee3 193f 5fed 0d3f 96c4 923e
00000390: 454f 083f 39ba a03f 025c c93e 6a67 4a3f
000003a0: f9d9 d1bd 7c88 3b3f 1e59 b63e 4202 093f
000003b0: 83c8 163f bdb3 2b3e f16d 023f 419f 323f
000003c0: 0773 d93e 2853 873f 261f 953f a4da 2f3f
000003d0: 6e9d 3a3f 7812 cc3e f891 cb3e ebe4 953f
000003e0: fb80 043f 327f 723e 1f08 4a3f dd1b ce3f
000003f0: 1946 e53e a87f 7f3f 844d b33d 5608 5f3f
0.80159 0.89861214 0.19181578 1.6889191 0.6416901 0.7625931 0.86540586 1.017753
1.1476841 0.9292451 0.22269511 0.43838075 0.5809075 0.7941002 0.7466542 0.86244905
0.8924955 0.7844245 0.86935335 0.80690414 0.7040216 0.51466966 0.52524585 0.6830389
1.0078645 0.41230088 0.9497565 0.65863895 0.6312702 0.8273922 0.22183794 0.5157123
0.8667888 0.33728018 1.1744341 0.5764884 0.44779965 0.71103317 0.40088156 1.5084661
0.40082562 0.6731721 0.63680977 0.33515865 0.45578465 0.36837438 0.79133224 0.5954993
1.1519082 0.7223329 0.35344517 0.95092577 0.25804174 1.1230122 0.5878888 0.6367577
0.39125663 0.5956727 0.9259761 0.8749063 0.46559468 0.7678377 0.49962223 0.36557764
0.47701922 0.81203693 1.2470491 0.7233777 0.33162427 0.9466182 0.8907725 1.0934734
0.56859225 0.8734476 0.6098366 0.88162446 0.5928114 0.3704995 0.3273661 0.40141803
0.44278598 0.49048156 0.620179 1.1353751 1.0747111 0.4213261 0.7712997 0.5339298
0.5043924 0.92558426 0.2932296 0.7352012 1.0894401 1.0455067 0.22470039 0.12613846
0.35514465 0.70593244 0.5691496 0.5576352 0.8179068 0.68212336 0.32555565 0.7161304
0.9497729 0.54420847 0.46517304 1.097987 0.7182195 0.5895877 1.0189894 0.54617536
0.48844823 1.7438221 0.4459966 0.9509732 0.69126225 -0.3430496 0.07740956 0.6119094
1.3048728 0.5841129 0.6890062 0.5933189 0.6212048 0.38373053 0.25386277 1.4526975
-0.5186721 0.8134267 0.5104646 0.9314807 0.47347364 0.9104973 0.33196723 0.90035456
0.34367293 0.42942417 2.109744 0.48020568 0.15439323 0.64738065 0.4097008 1.0356071
0.54269904 0.5255269 0.7733918 0.77068144 0.7103157 0.2304619 1.2440503 0.48374203
1.6935616 0.9228536 0.5413766 0.52317417 0.33263123 1.0118054 1.3839753 0.14785996
0.5215766 0.59812546 1.1199304 1.0436538 1.2400686 0.7900606 0.78282315 0.31913075
0.60554963 0.766363 0.5993018 -0.017369844 0.65266824 0.24372867 0.9057014 0.61271614
0.61092246 0.6782421 1.2770485 0.04737988 0.57092416 0.6137188 0.43098077 0.45244864
0.6667398 0.8835151 0.60323864 1.3843993 0.59691405 0.6663414 0.7858365 0.48552197
0.46536177 1.2991112 0.8206703 0.36433533 0.3439563 0.70670986 0.9566152 0.5672261
0.442225 0.54302883 0.6175048 0.7574486 0.36880103 0.46699592 0.75117147 0.36692917
0.6257905 0.34026253 0.5812666 0.2806028 0.1878129 0.46618536 0.45593652 0.19137262
0.08260208 0.67283213 0.91420716 0.45743713 0.5538873 0.21712248 1.1854044 0.43842146
0.6565271 0.6011218 0.55440325 0.28665608 0.53245956 1.2556831 0.3932801 0.7906405
-0.10246653 0.73255134 0.35614866 0.5351907 0.58899707 0.16767783 0.5094901 0.6977425
0.4247057 1.0572252 1.1650131 0.68692994 0.7289647 0.3985784 0.39759803 1.1710485
0.5175931 0.23681334 0.7891864 1.6102253 0.44780043 0.9980416 0.08755019 0.87122095

bn1.bias f4 [400]
00000000: 94fb f33d c51e be3e 81d2 efba 6c0a 133f
00000010: 6c42 04bc cd68 283e 49d2 bd3e 92fe 69bc
00000020: 5160 d4ba a406 993e ab89 ff3d b9d6 b23d
00000030: b931 b1bc cd28 bb3e d325 583d d3a0 a1bc
00000040: 04b5 2a3d 06e0 ce3d c78e 283f 6d41 413e
00000050: 2afa 963e 0d61 65bd 0541 d33d e51b 5c3e
00000060: 7dfc 003e 1fef fc3d e69b 813e 8e8f 5b3e
00000070: 625e ecbb 4ba6 613e 3aef 23ba 8e85 893d
00000080: 2df5 ba3e e522 953e 2916 d73e b60d 9fbd
00000090: 63bd c2bd d0fb b63e 5f1e 883e 81da 383f
000000a0: 746d eb3d e7de c7bc b3d4 98bd bc28 233c
000000b0: 4bff 92be eb69 463e 31d5 833a e0d6 463e
000000c0: fe84 083f 021f a83e fcb7 08be 883b b73e
000000d0: bfa3 263c dbdc 5d3e 6d2e 1c3d ac2f 953e
000000e0: 6b10 83bd cb48 f23e b760 963e d9a6 073f
000000f0: 4f67 aabe 538c ea3d 6a41 383d eb32 9b3d
00000100: 3d44 753d d2b4 3e3e c972 3c3e 965d 9e3e
00000110: 61eb 923b 55bb c03e bc79 223c 77fd c33e
00000120: 438a 9e3c 8aee 083e 3f1c 073e a3c0 db3c
00000130: 4ada 893e da06 17bd a6e9 90bc a676 0b3d
00000140: 132f 55be d484 0d3e a9df 853e 0f71 2e3e
00000150: 91be 0f3f 6647 fd3d 1102 663e 0fcd 2a3e
00000160: f029 3e3d 2ad6 b6bd 7a47 7fbe 5084 b43d
00000170: 8775 3e3f 9243 033f 2502 a6bb 018e 36bd
00000180: 26fb 27bc 2a8d 653e b3c8 033e 1e62 f13d
00000190: 2b38 163f 3d77 ab3d dcd8 49bc fa19 163e
000001a0: b825 823e 6dc4 9fbc f984 403d 0b8c 183f
000001b0: e68e 673d 79b6 4fbd 9e0f b93e 107e 503e
000001c0: f882 9e3d d8f2 b3bd 1dc5 9a3c 4991 943e
000001d0: 0757 8b3e d3fa 46bd 8387 2dbc 1aef c7bc
000001e0: 5b3c 183f 0d01 d0ba 925d 733d 11b3 8bbe
000001f0: d75c 993d 2e13 b23b f938 dd3a 0c1a 463f
00000200: 83a8 e9bd 7d42 d93e 55ee 0f3e 3232 b83e
00000210: 2824 0c3f 0f8e 763e 8420 f13b f5c6 e33e
00000220: 031d 2a3d 13ac 003e 9bbc 173f eb54 663d
00000230: 141b 21bb 73f5 c63e 60c4 103c 67e3 debd
00000240: 0af9 1e3e 9145 6ebd 4fc8 273f 7362 4b3f
00000250: 62c3 893e 66d8 14bd 28e8 023f 1217 aa3d
00000260: a04c 693f 4b79 a13e 9bbf 0fbf 0198 24be
00000270: ecc7 073d 81d2 7c3e 098a 053f 7c22 30bc
00000280: 2f88 fb3c 8328 163e 4c11 823e 01f7 54bd
00000290: a385 d13e 3bb7 983e 97cc 3c3e 17d2 c2bb
000002a0: 0f5e 8c3e 8d33 123e 253a 073e 45cd b6bc
000002b0: 9f00 123e d9cf a2bb 7c2b ad3e 44e1 1e3f
000002c0: 1c3d 2c3e 21bf 153e a5a9 683e a0a0 68bf
000002d0: 9c65 803c 3fb4 313e e26f 813d 9443 273e
000002e0: b9d9 3d3e 49d5 033f cde3 323e 9744 593f
000002f0: cf51 3abf 21fd 713e 203e c43e ec79 603e
00000300: 48a9 0e3e 7dbc 533e b07f 803e 0d99 8c3c
00000310: 48d2 1c3d 4c8f f63d 2605 223e 8ec8 15be
00000320: 71bd 5d3e 21ed 103c c89f 6b3d 3ec0 b0be
00000330: 809e 483d 7a6a 443d cda8 a83c d23b 2f3d
00000340: 75e5 9b3d c4a5 b63d b4ea e1bd d7d3 7c3e
00000350: e19a 053d 80df ee3d 5d6e 46bd a5ca 423d
00000360: 95cf 8dbc d47e 81bd cff0 a23e c37f 7ebc
00000370: bc14 4b3e 29ed b53c b828 013f ace8 0d3b
00000380: ebd5 203e 7ea5 173e c570 8b3d c274 043b
00000390: b48d 4abd d354 39bc ee75 163e 976b bf3e
000003a0: 91ad bb3a 7b94 793e bceb 71bd ef79 903e
000003b0: 033b 023e a22a bf3c 0be9 d9bb c415 b93d
000003c0: 7cf5 053e a685 02bd aac0 a53e 4709 663e
000003d0: e2f9 a83d 97c5 88bd 9ea0 4dbe 0aa5 d83e
000003e0: cbd3 013e d4d3 8c3d 3b86 f63e 8aa6 233f
000003f0: f52b c43d 07ef 4abd 1dee f6bc b787 963e
0.11913219 0.3713285 -0.0018296988 0.5743778 -0.008072477 0.16446228 0.37074497 -0.014281886
-0.0016203021 0.2988788 0.1247743 0.08732361 -0.021630155 0.36554566 0.052770447 -0.019730007
0.041676536 0.10101323 0.6584286 0.18872614 0.29487735 -0.056000758 0.10315136 0.21495016
0.12596317 0.12350296 0.25314254 0.2144148 -0.0072133997 0.22036092 -0.0006253604 0.06714927
0.3651518 0.29128185 0.42009094 -0.07766287 -0.09508779 0.35738993 0.2658567 0.7220841
0.11495486 -0.02439828 -0.07462444 0.009958442 -0.28710398 0.19376342 0.0010058043 0.19417906
0.5332793 0.32836157 -0.13351434 0.35787606 0.010170876 0.21666281 0.038130213 0.29137933
-0.06399616 0.47321162 0.29370663 0.52988964 -0.33281943 0.11452546 0.04498426 0.07578071
0.05987953 0.18623665 0.18403162 0.30930775 0.0044836258 0.37642923 0.009916719 0.38279316
0.019353038 0.13372245 0.13194369 0.026825255 0.26924354 -0.03687177 -0.017689537 0.0340487
-0.20818739 0.13820201 0.26147202 0.17035316 0.56150156 0.12367134 0.22461726 0.16679786
0.046426713 -0.08927567 -0.2492961 0.08814299 0.7439808 0.5127498 -0.0050661736 -0.04456902
-0.01025275 0.22417131 0.1286953 0.117862925 0.58679456 0.08372352 -0.01231977 0.14658347
0.25419402 -0.019502843 0.047001813 0.5958869 0.056532763 -0.05071113 0.36144727 0.20360589
0.07739824 -0.08786553 0.018892819 0.29017094 0.27214834 -0.04857905 -0.010591391 -0.024406005
0.59467095 -0.0015869454 0.059415407 -0.27285054 0.07488411 0.0054344153 0.0016877941 0.77383494
-0.11409094 0.4243354 0.1405576 0.35975796 0.5474267 0.24077629 0.0073586125 0.4448773
0.041531574 0.12565641 0.59272164 0.056233328 -0.002458279 0.38859138 0.008835882 -0.10883217
0.15524688 -0.058171812 0.6554002 0.79447097 0.26906878 -0.036339186 0.5113549 0.083051816
0.91132545 0.31537852 -0.5615174 -0.1607361 0.033149645 0.24689676 0.5216375 -0.010750409
0.030704586 0.14663891 0.2540382 -0.051993374 0.4092227 0.29827294 0.1843742 -0.005945455
0.2741551 0.14277478 0.13205774 -0.022314677 0.1425805 -0.004968625 0.33822238 0.6206248
0.16820186 0.14623691 0.22720964 -0.90870094 0.015673451 0.17353915 0.06320168 0.16334373
0.18540086 0.5149732 0.17469712 0.84870285 -0.7278108 0.23631717 0.38328648 0.2192151
0.13931763 0.20677371 0.25097418 0.017162824 0.038286477 0.120390505 0.15822276 -0.14627287
0.21654297 0.008845598 0.057525426 -0.3452167 0.048979282 0.047953106 0.020588303 0.04278166
0.07612125 0.08918336 -0.11031094 0.24690185 0.032618407 0.11663723 -0.048445094 0.047556538
-0.017310897 -0.06323019 0.31824347 -0.01553339 0.19832128 0.022207813 0.50452757 0.0021653576
0.15706603 0.14809224 0.068086185 0.0020211195 -0.049451545 -0.011311728 0.14693424 0.37386772
0.0014318695 0.24373047 -0.059062704 0.28218028 0.12717824 0.023335759 -0.0066500953 0.090373546
0.13081926 -0.03186574 0.32373554 0.22464477 0.08250786 -0.06678312 -0.20080802 0.42313415
0.12678449 0.068763405 0.48149285 0.63925993 0.09578697 -0.04954436 -0.030142838 0.29400417

bn1.running_mean f4 [400]
00000000: 29ea a93d ca39 723e 74b7 cb39 43a7 b03e
00000010: 6534 a13a 2d85 fe3e 5a95 8d3f df41 ca38
00000020: f67d 213a 3157 e93e 1c4c a93f 2348 b43e
00000030: f953 a43f da2c 573f a843 4d3e 2e84 1d3f
00000040: 0a6d 8f3e 6b8b a33f 84c9 dd3e 9e87 663e
00000050: a5f9 683e ea51 0b3e d150 393e e51b 123f
00000060: 9da1 d13e 240c 5d3e 9f0c 623e 8355 4a3e
00000070: 2c3f ee39 e2f9 e43e 15c0 a03a 49dd c03e
00000080: fed2 5a3f 20cd a33e ac9f d33e 4ee1 833f
00000090: 59dd ab3d a80b 833f 2dd3 693f 7a1f 113f
000000a0: 99a7 a83e 89c5 9d3e f85d 433e 67f2 753a
000000b0: f202 1a3f c2d7 353e d73e f839 fb63 9a3f
000000c0: fdcb fc3e 07fe 2b3f 5bec 003e 5b51 f53d
000000d0: b17e 4c39 7244 023d b1fb 833e 1e12 553f
000000e0: e96b 0e3d b529 c83f 6691 453e 89da 293f
000000f0: 8b8e b63e 5045 ea3c e33c b13d d19b 243e
00000100: ffe5 473e b445 203e 8be8 603e ea7c 8f3e
00000110: f32c 5836 95a7 a73e 1d1c 9c38 d543 1d3f
00000120: 62aa c439 b1d2 553e 30d0 973e 8856 1940
00000130: cc5f 273e 0fd8 523f c300 2f39 9a11 b33e
00000140: 475f 0038 723f e83e bd82 223f 6567 043e
00000150: 1a6c f03d ab0c 0e3f b8d0 263f 307c 5d3e
00000160: 0e4c 2f3e d861 613f 6dfe d83d 7341 3c3d
00000170: 90db 363f 7b7e 243f e684 af3c 897d 0040
00000180: 94ec 0339 a7b7 213f db06 783e 4e10 153f
00000190: ba7f 573f d86f 833d 1317 643e effc 443e
000001a0: e559 963e f47e c639 9a29 bc3d 6635 f23e
000001b0: bb18 f13e e193 ee3f 4112 083f ec7c 6c3f
000001c0: eee9 503d 5827 f43d 0f33 e93d 3f74 cb3f
000001d0: 03ec b13e 48dc 313a 3df1 863c fd43 643e
000001e0: 2153 a23e 6214 7639 4900 bd3e 55b2 cd3e
000001f0: 5180 583f 036b b23e 398b 5139 0333 133f
00000200: 05f7 f43c 2cd4 923e cd57 df3d 8c1d cf3e
00000210: 05f4 bd3e 988f df3d 2c59 c83b 0a35 853f
00000220: f819 8b3e a14c d23e 5ce6 543e 3e73 ac3e
00000230: 4fe9 9e3f 752e a13e 81f2 3a39 2e42 243e
00000240: f9fe b53e 20b0 f03f 281a 273f a31b a03f
00000250: f36b f83c b398 cc3e 9bbd 343e 3d78 2f3e
00000260: 20a7 023f a3c9 3f3e ba13 583d 7f71 e73e
00000270: 8bcc 5a3d d166 9f3e adab 073e d5b1 fc35
00000280: bf54 723d 5fcd db3d 13cb 3f3f e4c2 943f
00000290: b3fc 723e 81f3 303e 44d6 ef3e b3fa 253e
000002a0: fe60 6c3e 0be3 933e cf35 c33e 1df3 043c
000002b0: 2379 ad3e 52e2 8c39 82cb 493e f7ed ae40
000002c0: 8aa2 d53f 5d4a 2e3f 3932 583f 0400 0000
000002d0: e670 ca3f e46b 5c3f b28a ea3e 1629 693f
000002e0: 1eb0 9f3e a4d1 8b3f dfd3 e33e 3f94 103e
000002f0: fed8 0040 5f0e aa3e 8be7 2f3f ccc7 703f
00000300: cce2 0c3e 34e4 9f3f 9535 193f ca63 2139
00000310: 6405 b03e 46f5 0a3e 5057 513e 5493 9e3f
00000320: a557 783f 1fde bb3d 754e 563d 6a3e 1440
00000330: 5359 be3e 767c f03e 0bf6 173f 4a73 8d3e
00000340: 9cb2 0f3d db49 893e 1039 173f d91b ee3f
00000350: 1b48 103e 84ba 553f 7a77 c93e 6bea 073e
00000360: ae43 8840 2a0e 7d3d 73a2 293e 889d 0a3a
00000370: f90c c53e b44e b33e 4049 183e 4007 c936
00000380: 55f6 cc3d 4df6 203f 899f 403e 0c6b 093e
00000390: ffd3 413e 469b 673f 5c63 533f 9f9d 893e
000003a0: 7246 c039 4365 ed3e 0603 7b3f 0a80 9a3e
000003b0: a24c 2a3f 20aa 933e bfce c03a d013 453e
000003c0: 6811 1b3f 1f9e d03e 10ee fc3d f617 bc3e
000003d0: 0748 f93c cea4 033c 04ac 813f c77f 193f
000003e0: f2d5 e23e 4121 db3e 09f2 003f 4e3f d13d
000003f0: 1909 913f 2768 293f d3ba 2739 473f ff3d
0.08296616 0.23654857 0.0003885586 0.3450261 0.001229894 0.4971098 1.1061203 9.64438e-05
0.0006160432 0.45574334 1.3226352 0.35211286 1.2838126 0.84052813 0.2004534 0.61529815
0.28012878 1.2776922 0.43317807 0.22512671 0.22751482 0.13605466 0.18097235 0.57073814
0.40943614 0.21586663 0.22075127 0.19759183 0.00045441964 0.44721895 0.0012264276 0.37668827
0.854782 0.31992435 0.41332757 1.0303133 0.08391828 1.0237932 0.91337854 0.56688654
0.32940367 0.3081477 0.19078815 0.0009382129 0.60160744 0.17758086 0.00047349065 1.2061762
0.4937438 0.6718449 0.12590162 0.11978408 0.00019502152 0.031803556 0.25777963 0.8323077
0.03477088 1.5637728 0.19293746 0.66349083 0.35655627 0.028597504 0.08654191 0.16075064
0.1952133 0.1565159 0.21963708 0.2802499 3.2212672e-06 0.32745042 7.443896e-05 0.6143163
0.00037510978 0.20881154 0.29651022 2.3959064 0.16345137 0.8236093 0.00016689584 0.34974366
3.0606312e-05 0.45360905 0.6348074 0.12930067 0.11739369 0.5548808 0.6516223 0.21629405
0.17118856 0.8803992 0.10595403 0.045960855 0.71428776 0.64255494 0.021425676 2.007662
0.00012581266 0.63170856 0.24221365 0.58228004 0.8417927 0.06417817 0.22274427 0.19237112
0.2936546 0.0003786009 0.09187622 0.47306365 0.4708918 1.8638879 0.53152853 0.92378116
0.051004343 0.11921567 0.11386692 1.589485 0.34750375 0.00067848386 0.016472453 0.2229156
0.31704047 0.00023467981 0.3691428 0.4017512 0.84570795 0.34847268 0.00019983658 0.5749971
0.029902944 0.286775 0.109054185 0.4045223 0.37100235 0.1091606 0.0061141457 1.0406811
0.2716825 0.41074088 0.20791 0.33681673 1.241495 0.31480756 0.00017828682 0.1604087
0.3554609 1.8803749 0.65274286 1.2508434 0.030324912 0.3996025 0.17650454 0.17135711
0.5103626 0.18729262 0.052753188 0.45203778 0.053417724 0.3113313 0.13249083 1.8827219e-06
0.05916285 0.10732531 0.7491924 1.1621976 0.2372921 0.1728039 0.4684316 0.16208915
0.23083875 0.28884158 0.3812699 0.008114603 0.33881482 0.00026871503 0.19706538 5.4665484
1.6690228 0.6808222 0.84451634 6e-45 1.5815704 0.8610213 0.4580894 0.9107832
0.31189054 1.0923352 0.44497582 0.14119051 2.0132442 0.3321409 0.6871268 0.94054866
0.13758391 1.2491517 0.59847385 0.00015391331 0.34379113 0.13570127 0.20443463 1.2388711
0.97008735 0.091732256 0.052320916 2.3163095 0.37177524 0.46969956 0.59359807 0.2762702
0.035082445 0.2681416 0.59071445 1.8602248 0.14090006 0.83487725 0.39348966 0.13273017
4.2582617 0.061781086 0.16565876 0.0005287756 0.3848646 0.35020983 0.14871693 5.991111e-06
0.100079216 0.62875825 0.18810858 0.13419741 0.18928526 0.90471303 0.82573485 0.26878068
0.0003667358 0.4636632 0.9805149 0.3017581 0.6652318 0.28840733 0.0014710053 0.19245839
0.60573435 0.40745637 0.12350094 0.3673703 0.030429853 0.008034898 1.013062 0.599606
0.44303852 0.42798808 0.50369316 0.102171525 1.1330901 0.6617455 0.00015995959 0.12463241
