model/critic.pt (torch_old, 549749 bytes, 9 tensors)

fcs1.weight f4 [400, 33]
00000000: b337 c0be b80b fa3e 6cec 3f3e 0581 963d
00000010: ce8d f7bd 2519 dabe da6f b3be 9555 09be
00000020: 53ec d2be 40e0 6bbe 24d1 d2be 3eb9 fb3c
00000030: b8af ecbc f308 ebbe 6fbd a4be d3c5 793e
00000040: 3292 ddbe 0c20 a9be b411 c6bc 3e7c 65bd
00000050: 99aa 13be a844 0abe 3a3e 163f ccde e8be
00000060: 7a07 d73d fa45 bc3d aa12 0b3e 466b 033f
00000070: 2011 193d c0d8 c33a f074 d9be 1e6f d03c
00000080: 0954 ef3e a468 94be e026 943f 914e c93d
00000090: c17d 0fbf 2011 f63e 01e0 c9be 1e3d 703e
000000a0: 0000 8fbd 1ac7 a83e a6d7 a6be aa5c 6f3e
000000b0: f216 963d b443 e5bc 5381 b3bd a1ef bd3e
000000c0: eec4 863d 5be5 0f3e e7f0 77be 0784 17bf
000000d0: b44c 27be e38a 13bb 29ac dcbd eac5 9fbd
000000e0: 4a3a 813d ba65 2dbe 668a 18bd bfd1 043e
000000f0: c538 573f 05e4 96bd ee38 de3c 884f 4abf
00000100: 51b3 113d bf48 053f 512f 893e ec38 4f3e
00000110: dc5c 4bbe 7b98 c8be daa5 66be 50b1 7dbe
00000120: 87ea 283f 040f 003e 0f96 233d 4bba 91bd
00000130: 9fea f7bd 14ff 023f 4aca e2be d7ee 8bbe
00000140: bb4b 3e3e 9b71 053c 6db3 2cbe f248 46be
00000150: 1069 c6be b81c 463e 7420 41be 4bad 15be
00000160: 15c1 b53e 1b0b e3be 4ae5 bebe 4369 89bd
00000170: 6a4c 84be 1519 563f b6b2 eb3c 40f7 383a
00000180: 33dd 4dbf c19b 263d 061c e0bc 9a03 663e
00000190: b7c2 543f 1753 edbc 6e65 2ebf ab49 813c
000001a0: ec97 88be 18b9 65bc 528b 64be 8136 82bd
000001b0: bd7e 5cbe cace c33d fa29 8a3e 0398 e43d
000001c0: abef 1f3e fd1b 303f fbde f0bd f3e0 663e
000001d0: e903 593d 3ea1 a03e 2730 1f3e 86c3 9ebc
000001e0: 84ed 48bd cfa5 323d fea1 c33d ecb0 853d
000001f0: 4723 f8bd 115a bcbd b068 3c3f 18f8 a23e
00000200: ccde 333c bd40 47bf fc32 91bc 6bb5 033e
00000210: 2fb1 9e3e cc9c ce3e b32b 7dbe 412f c7be
00000220: e6d0 903e 0d3d cbbe 5f84 cfbd b4c5 d7bd
00000230: df72 863d 04d2 0bbe 3412 d43d a457 c83e
00000240: ecbc 193e ec4d 603e 65ad debd f129 d03c
00000250: c392 fd3e 67fc 0ebe 9408 44be 6408 a0bd
00000260: 119c 3b3f 64ed 08be 5d7f f93d 8dec fb3e
00000270: 3371 9dbd 725f f93c 77c1 583e 90ff 143f
00000280: 74a4 5dbe ca6f ee3c 5a7e 06bf 65a4 3e3d
00000290: 8ac1 883f 80b7 8d3d b96f 533f c59c 97bd
000002a0: fec9 633e 12f5 08be 603f ae3a 13ef 83bd
000002b0: 39af 09bd 9090 11be 9b9c 7f3e 1da2 cabd
000002c0: 7a4b 1cbd ee3a 92bd f81c e3bd acb2 5fbf
000002d0: 3076 8dbe 3730 6fbe d914 86bd bc93 f73d
000002e0: 0e9a 49be dbd5 71bc f9f3 0cbd 15a7 593c
000002f0: de61 1d3d 86f0 04be 5bc5 2d3d 09d0 253e
00000300: 4582 703d 23d0 bf3e 8057 46ba a722 fdbd
00000310: b00c 2abb d715 c5bc c5ef 90be 4add 3f3f
00000320: 79c3 4cbe 01ef 0ebf 7cad d83c 0f39 153e
00000330: 2381 febc 64f7 66bd 2219 333e 7339 be3e
00000340: 16b6 fdbd bf59 083e 2f90 a1be d427 6d3d
00000350: 5899 f73e 3206 9bbe 3877 763e 2ca3 e6bd
00000360: e2c2 55be f17d 833e c29f 04bd e7e1 5fbe
00000370: 33f3 fcbc 0a7e 193e f567 693c d9d1 80bd
00000380: 20ed 9e3d ffbe 4b3f f70d 553d ec94 04bd
00000390: 6696 51bf 4518 29bd b4e5 b43e f234 31be
000003a0: 886e 8fbd 3798 a4be 5cfd 9dbd aa23 39be
000003b0: f6d6 a5bd a89e e4be 2c21 f53e 87d3 ddbe
000003c0: 4bf8 8b3d df11 b33d bebc 923c df7b 87bd
000003d0: b79d 3e3c e5c2 b93e 0b3b a53c e153 cebe
000003e0: b371 6cbd 1e91 0cbf 7880 6c3e b08c 433d
000003f0: f951 b93e 6d9b 0bbe abe3 053f 3b73 1f3f
-0.37542495 0.48837066 0.18742532 0.07348827 -0.12087594 -0.4259731 -0.35046273 -0.13411553
-0.41195926 -0.23034763 -0.41175187 0.030727979 -0.028892383 -0.45905265 -0.32175776 0.2439187
-0.432756 -0.33032262 -0.024178363 -0.05602669 -0.14420547 -0.13502753 0.586887 -0.4548248
0.10499473 0.091930345 0.13581339 0.5133556 0.037369847 0.0014941916 -0.4247203 0.02544361
0.467438 -0.28986084 1.1574364 0.098294385 -0.5605126 0.4805994 -0.39428714 0.23460814
-0.06982422 0.32964402 -0.32586402 0.23375192 0.07328595 -0.027986385 -0.08764901 0.37096885
0.0658053 0.14052336 -0.2421299 -0.5918583 -0.16337854 -0.0022513203 -0.107750244 -0.07801421
0.06309946 -0.16933337 -0.037241362 0.12970637 0.84071 -0.0736771 0.027126756 -0.79027605
0.0355714 0.52064127 0.26793912 0.20236558 -0.19859642 -0.39178833 -0.22524205 -0.2477467
0.6598286 0.12505728 0.03993803 -0.07115611 -0.12105297 0.5117047 -0.4429496 -0.27330658
0.18583576 0.008144761 -0.1686532 -0.19363764 -0.3875203 0.19346893 -0.18860036 -0.14616887
0.35498872 -0.4434441 -0.3728431 -0.0670953 -0.2583955 0.8363202 0.02877174 0.0007055886
-0.8041565 0.040675882 -0.027357113 0.22462311 0.8310961 -0.028970284 -0.6812352 0.015782198
-0.26678407 -0.014021181 -0.22318771 -0.06358052 -0.21532722 0.09560926 0.2698515 0.111618064
0.1561877 0.68792707 -0.1176128 0.22546749 0.052982245 0.31373018 0.15545712 -0.019380342
-0.049054638 0.04361516 0.09552382 0.06527886 -0.121161036 -0.09196866 0.7359724 0.31829906
0.010978412 -0.7783316 -0.017724507 0.12862174 0.30994555 0.40354002 -0.24723701 -0.3890324
0.28284377 -0.39695016 -0.1013267 -0.10535756 0.06564879 -0.13654333 0.103550345 0.39129364
0.15013474 0.21904725 -0.10872916 0.025410624 0.49526033 -0.13963471 -0.19143897 -0.078141004
0.73285013 -0.13371807 0.12182496 0.4920391 -0.07687607 0.03044102 0.21167551 0.5820246
-0.21644765 0.02910604 -0.5253655 0.046543498 1.0684063 0.069197655 0.8259235 -0.07402948
0.22245023 -0.13374737 0.0013294034 -0.06442084 -0.03361437 -0.14215302 0.24962084 -0.09894202
-0.038157918 -0.07140146 -0.1108951 -0.87382007 -0.27629232 -0.23358236 -0.06546945 0.12088725
-0.19687673 -0.01476046 -0.034412358 0.013284464 0.03842341 -0.12982377 0.04242454 0.1619264
0.058717985 0.37463483 -0.0007566139 -0.12360125 -0.0025947504 -0.024058266 -0.2830793 0.74947035
-0.19996442 -0.5583344 0.026449911 0.14572547 -0.031067437 -0.056388274 0.17490056 0.37153205
-0.12388246 0.13315485 -0.31555316 0.05789931 0.4835918 -0.30278164 0.24068916 -0.11261591
-0.20875123 0.25682023 -0.03237892 -0.21863519 -0.030877685 0.14989486 0.014245977 -0.06290025
0.07760072 0.7958831 0.05201527 -0.032368585 -0.81870115 -0.04128291 0.353315 -0.17305353
-0.07003504 -0.3214738 -0.0771434 -0.18080011 -0.08097641 -0.44652295 0.4787687 -0.43325445
0.068344675 0.08743643 0.017912265 -0.066154234 0.011634282 0.36281505 0.020169755 -0.4029837
-0.05772562 -0.5490893 0.23095882 0.047741592 0.36195353 -0.13633509 0.5230052 0.622852

fcs1.bias f4 [400]
00000000: 5844 dabe 7de4 32bf ca23 3abf 48da 31bf
00000010: bb8d c6be fd35 483d d512 6abf 6ca4 16bf
00000020: f151 11bf f641 033f 57a4 5abf 87a1 3fbf
00000030: 8f46 33bf 31c3 40bf 8223 283d 6624 28bf
00000040: 2edf 53be c601 88be 849a e9be dda6 e7be
00000050: c7fa a3be 3e57 87bf 9839 4fbf 00f8 08bf
00000060: 7766 4cbf 81d2 e3be a337 43bf 7a44 8dbe
00000070: 1f13 9fbe 3bca 23bf f75c e2be b3a1 073e
00000080: 6119 58bf 8e77 3abe cb85 44bf 2e00 4cbf
00000090: 4d44 24bf 28c8 27bf c2e0 0bbf 4a32 4abe
000000a0: ac46 d43c 6505 c1be 93a0 67bf 771d a3be
000000b0: b85a 11be 0ea8 0abf 9ed3 18bf ea4e 82bf
000000c0: 818a bdbe 59a7 173e c8d1 3ebf ac00 22bf
000000d0: a27d d1be 67b7 d3bd 0044 89bf db66 b1bf
000000e0: 72c4 3fbf f9a1 a5be dd63 4bbf 308c 2fbe
000000f0: 28d3 2bbf 5398 15bf 1ba4 55bf 4a48 5ebf
00000100: 76a6 8abe 292c 66bf 5c98 a0be 0ca8 ecbe
00000110: cc0f 533e c1bc 13bf f383 00bf 7735 153e
00000120: 5781 b6be afba 62bf 4c8d 37bf 7f0d cfbe
00000130: e466 2fbf f437 efbe 602f 2abe 38d0 803e
00000140: 8b71 523d 437f 7cbf 10b6 d2be 68d4 8ebe
00000150: 785b 16bf c10a 56be 68c7 38bf 183c 38bf
00000160: 052f 8abf 54b8 78bf e91f 33bf c72c 073e
00000170: edd5 0bbf 36a0 19bf c4d5 abbe f880 96be
00000180: 23a8 d2be 5298 9ebc 4ff1 3bbf 5834 22be
00000190: e605 1ebf f552 52bf f7b5 7bbf 9adb 25bf
000001a0: 974f 08bf 7682 973e 7048 64bf 515d 06bf
000001b0: 5a66 0dbf 7e38 5a3e a00d 4fbf 1a12 79bf
000001c0: d701 f8be e1a8 7cbf 1140 83bf 6fec 26bf
000001d0: a460 56bf 58bc 2dbf 58f4 43bf 3f05 a3be
000001e0: b319 b8be d788 77bf c328 34bf 95b2 70bf
000001f0: 9554 1ebf 8b98 1cbf cc5d 1cbf 93bb a7be
00000200: f7b7 6cbf d7b4 febd c04c 86be 8e4e 07bf
00000210: 5fa3 48bf bd0d 41bf 2e3b 1fbf 9484 47bf
00000220: 365e 7cbf 585d 32bf 3124 28bf 9f37 47bf
00000230: 9e8c 30bf e2d7 56bf 3665 79bf 288f 543e
00000240: 0798 1bbf 0f3e d9be 0d67 31bf b7a1 673c
00000250: 430f 1fbf 586e 1ebf 80ef 34bf 725c 33bf
00000260: 8fcf 12bf e7ff 34bf c4ce ebbe fdc0 b7be
00000270: 23de 20bf 328d 91bf 5768 85be d658 5fbf
00000280: da63 62bc 4713 073e 32ec 55bf 28fc 423d
00000290: 6308 52bf cb7b 86bf 4b8b 5abf fb9c 67bf
000002a0: 1dbe 1bbf fb2d 4bbe 85da 3fbf 93ee 1abf
000002b0: c913 18bf 74c8 4cbf fd53 1ebf 2677 71bf
000002c0: 68a9 f8be 4b66 c6bd 7e15 97bd 1dd7 4cbf
000002d0: b3c2 4cbf b756 e1be 9b36 86bd d760 81bf
000002e0: dae3 8dbf 60c7 7abe ef3f bbbd 9451 28be
000002f0: f63b 38bf 3f3d 94bd b79f 2bbf dc34 f1be
00000300: cd49 debe c2fa 43bf f064 3abf 3f2b 05bf
00000310: a37f 66bf 9c5a 69bf 26ce 3cbf 42d0 ef3e
00000320: 6668 babd f00e 5dbe 0151 583c 9d38 dfbe
00000330: 1f86 82be b993 41bf bb69 a3be 57f3 c13e
00000340: d211 2ebf 365e 34bf 13cc 14bf afb9 46bf
00000350: 5725 c5bc e0ec 43bf ea4f 0dbf 34af 093e
00000360: ec0a c9bd a8a8 81be fa58 68bf c367 23bf
00000370: df6e 3cbf 26ae 49be 6086 76bf 185c 1cbf
00000380: a1aa e8be d652 29be 2959 b1be 882a 58bf
00000390: 95a6 2ebf 0638 24bf fe3c 5ebf d14a 32bf
000003a0: 3a28 9fbe dd51 bfbe da3a 0abf 4725 f2be
000003b0: e1df 033d ad07 edbd f0d7 70bf 6da9 68bf
000003c0: 9572 13bf 4532 09bf a164 01bf efc5 8abf
000003d0: af97 52bf daf1 8cbe 38a4 22bf c715 e3be
000003e0: 1de0 f93c 6385 8abf e059 efbe 90e4 fbbe
000003f0: 10ba 79bf a803 00bf e009 a6be 6c17 52bf
-0.42630267 -0.69879895 -0.7271086 -0.69473696 -0.38780007 0.048879612 -0.91434985 -0.5884464
-0.5676566 0.51272523 -0.8540701 -0.74855846 -0.7002954 -0.7529784 0.041049488 -0.6568054
-0.20690605 -0.26563853 -0.456257 -0.45244494 -0.32027265 -1.0573499 -0.80947256 -0.5350342
-0.7984385 -0.4449654 -0.7625677 -0.27591306 -0.31069276 -0.63980454 -0.44211552 0.13245277
-0.84413725 -0.18209669 -0.7676665 -0.79687774 -0.6416672 -0.6553979 -0.5463983 -0.19745746
0.025912605 -0.37699428 -0.9047939 -0.31858417 -0.14194763 -0.5416268 -0.596979 -1.0180333
-0.37019733 0.14809932 -0.7453885 -0.63282275 -0.40916163 -0.103377156 -1.0723877 -1.3859514
-0.74909127 -0.32350138 -0.79449254 -0.17143321 -0.67119074 -0.58435553 -0.8345353 -0.86829054
-0.27080125 -0.89911133 -0.3136624 -0.4622196 0.20611495 -0.5770989 -0.5020134 0.14571176
-0.35645553 -0.88566107 -0.71699977 -0.40439984 -0.68516374 -0.46722376 -0.16619635 0.25158858
0.051377814 -0.98631686 -0.41154528 -0.27896428 -0.5873332 -0.2090254 -0.7217927 -0.71966696
-1.0795599 -0.9715626 -0.69970566 0.13200675 -0.546233 -0.6001009 -0.33561528 -0.2939527
-0.41143903 -0.019359741 -0.7341508 -0.1584028 -0.6172775 -0.8215783 -0.9832453 -0.6478821
-0.53246444 0.2959172 -0.8917303 -0.5248614 -0.552343 0.21310613 -0.80880165 -0.97293246
-0.48438904 -0.9869519 -1.0253927 -0.6520452 -0.8374121 -0.67865515 -0.76544714 -0.3183994
-0.35957107 -0.96693176 -0.703747 -0.94022495 -0.6184781 -0.6117026 -0.6108062 -0.32760295
-0.9246821 -0.12436836 -0.2623043 -0.5285424 -0.78374285 -0.7541159 -0.62199676 -0.77936673
-0.98581254 -0.6967368 -0.65680224 -0.77819246 -0.68964565 -0.8392316 -0.9742006 0.20757735
-0.6077885 -0.4243016 -0.6929787 0.014137677 -0.6213266 -0.6188712 -0.7067795 -0.70062935
-0.5734796 -0.70702976 -0.46056187 -0.35889426 -0.62838954 -1.1371214 -0.26056167 -0.8724493
-0.013817752 0.13190947 -0.8356353 0.047603756 -0.8204405 -1.0506529 -0.85368794 -0.9047391
-0.60836965 -0.19841759 -0.7494281 -0.60520285 -0.5940519 -0.7999337 -0.61846906 -0.9432243
-0.48566747 -0.096874796 -0.07377146 -0.80015737 -0.7998459 -0.4401147 -0.06553384 -1.0107678
-1.108516 -0.24490118 -0.09143054 -0.1643737 -0.71966493 -0.07238244 -0.6704058 -0.4711064
-0.4341568 -0.765545 -0.7281027 -0.52019113 -0.9003851 -0.91153884 -0.7375206 0.46838576
-0.09101944 -0.2158773 0.013202907 -0.4359788 -0.2549295 -0.7561603 -0.31916603 0.37880966
-0.6799594 -0.70456254 -0.5812389 -0.7762708 -0.024065657 -0.7653332 -0.55200064 0.13445741
-0.09816536 -0.25323987 -0.9076077 -0.638302 -0.73606676 -0.19695339 -0.9629879 -0.61078024
-0.4544268 -0.16535506 -0.34638336 -0.844399 -0.68222934 -0.64147985 -0.86811817 -0.6964541
-0.31085378 -0.37367144 -0.5399605 -0.47294065 0.03219593 -0.1157373 -0.94079494 -0.90883523
-0.57596713 -0.5359233 -0.5054417 -1.0841655 -0.822627 -0.27528268 -0.6353183 -0.44352552
0.030502373 -1.0821956 -0.46748257 -0.49197817 -0.97549534 -0.5000558 -0.3242941 -0.8206699

fc2.weight f4 [300, 404]
00000000: cab2 263d 5b1a 95bc ac22 a4bd 0422 e6bd
00000010: 51f6 bdba 62f5 10bd b099 58be d889 b93d
00000020: 9abb 7fbc f83a 5abd 2be4 0ebe 9bc4 743d
00000030: 427b 9c3c 0e6b 43bd 76cc f63d f15b 07be
00000040: 732e adbc 9d03 1bbd 7100 f2bd 2947 13bd
00000050: ffb4 0bbe 22ae a3bd f7df 3ebd 0adf 703c
00000060: da35 c4bc 0204 e43b df24 ddbc 2c3b 69bd
00000070: 7103 a73d de07 c9bc 4d42 fe3c f2a8 23bd
00000080: 2ee3 b73d bd96 08bd 473c bcbd d4e8 8bbd
00000090: d1f3 b8bd 922b eb3d 18fb 863d 0f40 d9bc
000000a0: 7eea 5dbc 9c51 7ebd 204a 7cbd 6eb1 0a3d
000000b0: ab7e 0bbe fedd c23c 32fd c5bd 5770 6cbd
000000c0: dea4 d03c 2af1 b2bd ccbb 66bd 7159 32bd
000000d0: e26b 043d 6590 fdbc c1f0 d8bd fef6 3ebd
000000e0: fda3 e93d c766 8c3b 9e4b 43bb 0def 6fbc
000000f0: ccfc 60bd 8f34 abbd d1c1 36bb fe37 babd
00000100: a137 e2bd b889 42bd 6ad2 543b dd00 4cbc
00000110: 033e dc3d 41b9 be3c a656 85bd 4b51 8b3a
00000120: cae6 e7bc 697d ba3c cdfb c8bc 5051 8c3c
00000130: 102d 593c 7a4a 53bd 0bf7 91bc f0a8 99bd
00000140: 8716 5ebd efa0 0cbd 39d8 e5bd ffba a3bc
00000150: 7717 b8bd 8456 a5bc 9d00 713b 93bc ddbc
00000160: 3289 3abe 6dc6 de3c 3064 10bc 9490 853c
00000170: 4a51 45bd 6f01 2abb 5532 023d e136 d6bc
00000180: 0c02 b33c d6d2 b0bc 32d3 31bd 6623 0c3d
00000190: 78da 95bd f5c4 92bd c171 ddbd 765a d2bc
000001a0: eff3 7f3b 3c72 23bd 9a2b 733d d24a b1bc
000001b0: 1195 093e 9970 5b3d e822 c1bd 54b8 83bd
000001c0: eaaa 2a3c 01f5 d13c 367a 5bbd cf9d 21bd
000001d0: ae21 b4bc 2a95 1b3c 427e efbd 6aeb 4c3c
000001e0: 7271 923c 2343 4bbc fe69 853d e0bf 0abd
000001f0: 0b6b 0abd bb66 e4bc 45d3 bebc 6918 91bc
00000200: dea0 ecbc 6d9c 9f3c cad4 2bbc 5981 81bd
00000210: f257 273d 67a9 ee3d c9ce c1bb 37f2 a2bc
00000220: 9a55 3dbd 7f09 c73c 19a7 9abd 3670 27bd
00000230: aa99 5a3c f91f 44be 6ae0 eaba 6e07 5b3d
00000240: 64d2 9fbd 266a 7f3d b4a4 583c f31a 10be
00000250: effd 97bd 61fa bebb dc98 babc 5fcd f03b
00000260: 3755 f1bd c455 1c3d 26fc 13bd e3dd 733d
00000270: f295 0abd 9974 87bd 9a90 e33d 3bb9 94bd
00000280: 2d05 e6bc 9b64 50bc acfc 2f3d 3619 dabd
00000290: 82e9 cbbd 46af bf3d e6b7 9cbd d503 3e3d
000002a0: 9904 ec3c 5f10 253d 6d78 64bd 528d 4ebd
000002b0: 226f 35be 87fd 0fbe 284a 1bbe 1b16 833a
000002c0: ccd9 90bd 2ae6 193c e994 a9bd 1f35 713b
000002d0: c587 55bd 5307 d7bd f9fe 163d 9f8a b43c
000002e0: 1ff8 04bd 2779 923d 13aa 4e3c 8c82 5ebd
000002f0: b52c 9a3c 2374 6abd 947c 74bd 9189 31bc
00000300: 36d3 ec3c 1e3c bbbb 3db5 743d 1f77 6d3d
00000310: 4982 aa3d 98f8 073c 1609 753d f19a fb3d
00000320: 5438 93bd 3a23 2ebd 707c 893d 2ba4 293d
00000330: eb6a 543b 6fc1 3c3d 8799 4f3d b784 3abd
00000340: a188 47bd e7ab 51bd d7fe 463d be77 4ebe
00000350: ea68 2f3c ee4d abbc 465e c03b 7132 713c
00000360: 9e5c 51bd 30e6 ccbc 708a 06bd 7427 20bd
00000370: f460 e8bc 9cae 4cbb 0cf8 68bd 7325 b53c
00000380: 37da fd3c 5d1c 98bd 041a 5ebd a079 72bd
00000390: 3234 98bd 4a59 a2bd a6e7 8ebc 61cf 283d
000003a0: 18f0 bcbd 3239 04bd 211a d3bc f68e 38bd
000003b0: 35ca 0ebd 7805 583c 1a2f 40bc 6c02 8ebd
000003c0: cd92 dbbd 7c43 64bd 9eb5 84bd f0a1 b5bd
000003d0: e817 abbd 2111 f73c 5f19 9bbd f3ce 37bd
000003e0: 897b 0b3d c227 043d cf9a 26bd 5a1e d239
000003f0: eb4f 64bd 1ae4 b2bc d54c 4abd 1ea7 063c
0.04069785 -0.018201044 -0.08014426 -0.11236957 -0.0014492964 -0.035390265 -0.21152377 0.09059495
-0.015608693 -0.053278893 -0.13954227 0.05975781 0.019101743 -0.047709517 0.120507166 -0.13218667
-0.021140313 -0.037845243 -0.118164904 -0.035956535 -0.13643263 -0.079921976 -0.04660031 0.014701614
-0.02395146 0.0069584856 -0.02699512 -0.056941196 0.08154953 -0.024539884 0.031037474 -0.03995604
0.08978878 -0.03334688 -0.091911845 -0.06831518 -0.09030879 0.1148292 0.06590861 -0.026519803
-0.013544677 -0.062089548 -0.06159413 0.033860616 -0.13622539 0.023787495 -0.09667434 -0.057724323
0.02546924 -0.08737405 -0.05633144 -0.04354233 0.032329448 -0.030952642 -0.10592795 -0.04662227
0.114082314 0.004284713 -0.002979971 -0.0146443965 -0.054928586 -0.08359634 -0.002788652 -0.09092711
-0.110457666 -0.04749462 0.003247405 -0.012451378 0.10754015 0.023281695 -0.065106675 0.0010629086
-0.028308291 0.022764878 -0.02453413 0.017128617 0.013255373 -0.0515847 -0.017817995 -0.075029254
-0.054220702 -0.034333166 -0.11222882 -0.019986628 -0.089888506 -0.020182855 0.0036774047 -0.027067458
-0.18216398 0.027194226 -0.008812949 0.016304292 -0.048173226 -0.0025940796 0.03178628 -0.026149215
0.021851562 -0.02158491 -0.043414302 0.034213446 -0.0731706 -0.07166473 -0.108127125 -0.0256779
0.0039055308 -0.039903864 0.059367754 -0.021642122 0.1343577 0.05357418 -0.09430486 -0.06431642
0.010416726 0.025629522 -0.053583346 -0.03945714 -0.021988716 0.009496013 -0.11694004 0.012507299
0.01787636 -0.012406143 0.06514357 -0.033874393 -0.03379349 -0.027881017 -0.0232941 -0.017711835
-0.028885301 0.01948377 -0.010487745 -0.06323499 0.040855356 0.11653405 -0.0059145433 -0.019890888
-0.046224214 0.02429652 -0.075514026 -0.040878497 0.0133423 -0.19152822 -0.0017919664 0.053473882
-0.07803801 0.06235709 0.013222862 -0.1407278 -0.07421481 -0.0058281873 -0.022777967 0.007348701
-0.117838316 0.03816773 -0.03612914 0.05953778 -0.033834405 -0.06614036 0.11111565 -0.072618924
-0.02807864 -0.012719299 0.042965576 -0.1064934 -0.099566475 0.09359603 -0.07652263 0.046390373
0.028810786 0.040298816 -0.05577891 -0.050427742 -0.17718175 -0.14061557 -0.15165007 0.0010001095
-0.070727915 0.009393254 -0.082803555 0.0036805344 -0.052131433 -0.10499444 0.036864255 0.022038756
-0.03246319 0.07152014 0.012613791 -0.054323718 0.018820146 -0.057239663 -0.05968912 -0.010836021
0.028909307 -0.0057139536 0.059743155 0.05797493 0.08325631 0.008299015 0.05982312 0.12285412
-0.07188478 -0.042514063 0.06713188 0.04141633 0.003241236 0.04608291 0.050683524 -0.045536723
-0.048714284 -0.05118933 0.048582878 -0.20162866 0.010706166 -0.020911183 0.0058706133 0.014721499
-0.051113717 -0.025012106 -0.032846868 -0.039100125 -0.028366543 -0.0031232005 -0.05687718 0.022112584
0.030987842 -0.07427285 -0.05422403 -0.059198022 -0.074318305 -0.07927187 -0.017444443 0.041213397
-0.09225482 -0.03228111 -0.025769295 -0.045058213 -0.03486081 0.013184898 -0.01172998 -0.06934056
-0.107213594 -0.05572842 -0.06479953 -0.08868778 -0.08354169 0.030159535 -0.075731985 -0.044875097
0.03405336 0.03226448 -0.04067498 0.00040076935 -0.05574028 -0.021837283 -0.04938968 0.008218555

fc2.bias f4 [300]
00000000: 79e2 8dbe 8a96 6ebe e9f3 58be c950 afbe
00000010: e7f0 82be 15b5 8bbe 328a 6abd 19c1 3dbe
00000020: ff7b a9be df42 33be 8324 56be 47ec c0be
00000030: cce7 e33d f054 bdbe 0434 8bbe 90aa c4be
00000040: fb72 77be 7ed7 67be 3791 b2be 1018 9abe
00000050: c127 83be 4651 41be c243 acbe 3446 a7be
00000060: 2930 06bf 9c8a c3be c8e8 80be 70d6 3dbe
00000070: cc86 c3be f6ac 7dbe c0b9 59be bd3a 8fbe
00000080: c5cb 68be 1ede 23be 7939 93be f2d8 85be
00000090: e50f b2bd 9aec 473e ae9f 86be 098b acbe
000000a0: 8cdd 95be 5f1a a1be 021d 66be 4355 37be
000000b0: 3c8a 84be 4a1a 58be b2a4 babe 3bfc 9dbe
000000c0: 2a5b 82be e49c a2be 746e adbe 6847 53be
000000d0: 1b2c 3cbe 5654 3fbe a00e bdbe 9047 95be
000000e0: 6282 b9be cf4e 55be e7a0 abbe c268 c1be
000000f0: c091 82be 9436 8bbe 53cd 2fbe c213 00bd
00000100: c632 a8be d774 8abe 384d d8be 48a9 b1be
00000110: 4af0 7abe 54d3 6fbe 9cb4 30be 61e8 50be
00000120: f413 84be 076c 7bbe f6fd 6cbe 307b 97be
00000130: 1d9d 67be 66f0 9dbe 74a6 87be 88ad 5fbe
00000140: b1af a9be ff60 62be 51ff 66be 6367 afbe
00000150: 7849 fc3a 45e4 9fbe cd7e 57be b476 85be
00000160: 6706 7dbe 7100 52be c5ae bdbe fb36 75be
00000170: 41ed afbe 5c63 a5bd 6441 bfbe df36 9fbe
00000180: 2680 00be 5902 84be 3bab c5be 5d2c 81be
00000190: 1a44 b4be e68c cebe 722c 82be 0ce2 86be
000001a0: c782 5bbe cf96 f6bd 91cc d5be da21 8ebe
000001b0: 5b8e c6be fc46 00bf 6c66 96be 94b8 aabe
000001c0: 0f40 96be 9123 88be e03c 33be 07c8 45be
000001d0: 8e72 6fbe 88de 92be 8792 8ebe b7d5 9b3d
000001e0: 1f89 a9be b4e8 8fbe 4d49 aabe 8614 64be
000001f0: 15c4 c2be d1dc 79be 3512 c4be 7b21 78be
00000200: 88b7 87be 0fe1 4dbd 4460 80be 77a4 91be
00000210: 72eb adbe a602 d43d f021 9dbe 7277 d4be
00000220: 0405 abbe ac7b 6bbd f3cb c3be 81c4 9dbe
00000230: d240 65be 736f 82be 7655 55bd 5ab2 aebe
00000240: 36d8 93be 08d0 04bd e458 94be cbf3 8bbe
00000250: 3a8e 72be 06aa 87be e384 95be b5a0 5dbe
00000260: b438 babc 1b04 6dbe b10c 95be 3210 b4be
00000270: c973 123e 0b78 85be 60d3 98be d550 b7be
00000280: 635f 75be 99e8 dabe d770 89be 3159 74be
00000290: 3a39 86be 859f 37be 0987 74be 7531 dbbe
000002a0: bb1c 9abe feae cdbe af25 d9bc f247 76be
000002b0: 2c4a 90be d3ab d7be 4326 aebe 3605 aebe
000002c0: 5248 a5be e9f2 65be f0f4 87be 44a1 8ebe
000002d0: e3f7 9dbe 122d 003d 509f 8cbe a580 83be
000002e0: c921 94be 7944 a8be 93db d9be b22a 2bbe
000002f0: c407 c6be 8d62 a4be 0c5e 95be 8ddf 70be
00000300: 6078 8abe 7fa5 99be 5edb 0d3e 46f1 c7be
00000310: 5d9e 62be ede2 d1be ba97 87be 24b9 8dbe
00000320: 9bea a1be 3c83 b4be a011 f6be 1f8b 92be
00000330: 9f3f f23b 72b7 f0be 61d1 82be ef5a 8ebe
00000340: 9373 82be fe3c 6a3e 3ec2 95be caf7 c2be
00000350: 1a69 9fbe 42e5 ebbe e1f7 9dbd 3b04 a6be
00000360: 6be3 3dbe 5a53 6abc 9367 0c3e 2847 a5be
00000370: 408b bdbe d4de 86be 75d2 91be 9746 31be
00000380: d184 81be 7677 60be 1aee a5be 4f32 eebc
00000390: 9a71 e8be c2fa c13d 8ee5 8bbe 2e3c bbbe
000003a0: 3743 61bd eef7 a5be 4e5a 9bbe 33d1 153e
000003b0: 3962 10be b394 d7be 3c30 52be 598b b9be
000003c0: 9e12 a6be 8b7e 9dbe 5451 bdbe ca0f 91be
000003d0: e504 73be 849b 8fbe 76f6 c4be 9520 a6be
000003e0: 984a a2be d01a 42be a1a8 abbe 2681 57be
000003f0: 33ea 83be 2605 a8be 44d6 9fbe a808 91be
-0.27711847 -0.23299614 -0.21186794 -0.34241322 -0.2557442 -0.27286592 -0.0572607 -0.18530692
-0.33102414 -0.17505978 -0.20912366 -0.37680265 0.11128196 -0.36978865 -0.27188122 -0.3841138
-0.24164955 -0.22640797 -0.34876415 -0.30096483 -0.25616267 -0.1887866 -0.33645445 -0.32670748
-0.52417237 -0.38191688 -0.25177598 -0.18538833 -0.3818878 -0.2477301 -0.21262264 -0.279745
-0.22733982 -0.160027 -0.28754786 -0.2614208 -0.08694438 0.1952385 -0.262937 -0.33699825
-0.2927059 -0.31465432 -0.22472003 -0.17903619 -0.25886714 -0.21103778 -0.36453778 -0.308565
-0.25460178 -0.31760323 -0.33873332 -0.20632708 -0.183762 -0.18684515 -0.3692522 -0.2915616
-0.36232287 -0.20830844 -0.33521196 -0.37775236 -0.25501823 -0.27190077 -0.17168169 -0.031268843
-0.32851237 -0.27042267 -0.42246413 -0.34699464 -0.24505726 -0.23420459 -0.17256397 -0.20401146
-0.25796473 -0.24552928 -0.23143753 -0.29586172 -0.22618528 -0.30847472 -0.2649418 -0.2184354
-0.33141854 -0.22107314 -0.22558333 -0.34258565 0.001924797 -0.31228843 -0.21044464 -0.26067126
-0.24709474 -0.20507981 -0.370474 -0.23946755 -0.34360698 -0.08075592 -0.37354577 -0.3109655
-0.12548885 -0.2578304 -0.386072 -0.2522916 -0.35208207 -0.40341872 -0.25424534 -0.26344335
-0.21436606 -0.12040483 -0.41757634 -0.27760202 -0.38780484 -0.50108314 -0.29375017 -0.33343947
-0.29345748 -0.26589635 -0.1750369 -0.19314586 -0.23383543 -0.28685403 -0.27846166 0.07609122
-0.33112428 -0.28107226 -0.3325905 -0.22273454 -0.38040224 -0.24400641 -0.3829514 -0.24231522
-0.2650721 -0.05026346 -0.25073445 -0.2844579 -0.33968693 0.10352068 -0.30689955 -0.4149738
-0.33402264 -0.05749099 -0.38241538 -0.30813983 -0.22388008 -0.25475654 -0.052083455 -0.34120446
-0.28875893 -0.032424957 -0.28974068 -0.27334437 -0.23687068 -0.26496905 -0.29202947 -0.21643336
-0.022732116 -0.23146097 -0.29111245 -0.35168606 0.14301981 -0.26068148 -0.29848766 -0.35803857
-0.23962168 -0.42755583 -0.26843902 -0.23862149 -0.26215535 -0.17931946 -0.23879637 -0.4281117
-0.30100045 -0.4017257 -0.026507227 -0.24050882 -0.2818159 -0.4212328 -0.34013566 -0.3398835
-0.3228174 -0.22455944 -0.2655406 -0.2785741 -0.30853185 0.031292982 -0.27465296 -0.25684085
-0.28932026 -0.3286474 -0.42550334 -0.16715506 -0.386778 -0.32106438 -0.29173315 -0.23522778
-0.27044964 -0.30009076 0.13853213 -0.39051265 -0.22130723 -0.40993443 -0.26482946 -0.27680314
-0.31624302 -0.35256374 -0.48060322 -0.28621766 0.007392838 -0.47014958 -0.25550368 -0.27803752
-0.254788 0.22874829 -0.29249758 -0.38079673 -0.31134874 -0.46073347 -0.07713295 -0.32425103
-0.18543784 -0.014302099 0.13711385 -0.3228085 -0.37020302 -0.2634188 -0.28480878 -0.17312084
-0.25296643 -0.2192057 -0.3240822 -0.029076723 -0.4539917 0.094716564 -0.27323574 -0.3656935
-0.05499574 -0.32415718 -0.30342335 0.14630584 -0.14099969 -0.42105636 -0.20526212 -0.36239126
-0.3243608 -0.30760607 -0.3697611 -0.2833236 -0.23732336 -0.28048337 -0.38469285 -0.32446733
-0.31697536 -0.1895554 -0.3352709 -0.2104536 -0.25764617 -0.32816428 -0.3121816 -0.28326917

fc3.weight f4 [1, 300]
00000000: 086b e7bc 5fc4 723a 64c6 e43c 32b6 50bc
00000010: 8274 4a3c 3b93 78ba 444f 9f3c 79e3 22bc
00000020: 065e 38bb d4d3 653c 9869 77bc e1e9 1fbc
00000030: 9430 853c 3470 eb3c 2199 083c b1f2 3bbd
00000040: ef07 583b 34b8 fa3b 2000 cd3c de65 e23c
00000050: 68dd 24bd 7c4b b33c 3a72 40bc 4034 d4bb
00000060: 1f40 d53c 5f7b 5dbd 083a 813c dbe1 a2bc
00000070: 47c5 a4bc d08c 65bc f6b8 46bc eeeb ebbb
00000080: 0e90 64bc 0680 913a fa2c 043c 927e 36bc
00000090: febf c83c 5224 393c dbf0 9c3c af15 0b3d
000000a0: 9a90 c9bc 6d1b 873c de64 98bc 75c9 b3ba
000000b0: 9e9c aaba 130c 6a3c 3fea 80bb a682 a53c
000000c0: 49e4 97bc f498 a03c 17aa 2ebc 4988 473c
000000d0: 9a9b 903c 961f 4ebb 0060 7f3c 585b acbc
000000e0: 165c 5d3b 6edd 09bc 423b c73c 78e6 5f3b
000000f0: 8169 5abc db58 50bc bcd2 533c 7b5b aa3c
00000100: 9543 d53c 4fbf 87bb c693 063c 3106 583c
00000110: daf7 313c 8d8b be3b aafc 7abc d921 26bc
00000120: 556f 45bc a63b 1fbc 6cc8 f2bb 2254 bbbb
00000130: f229 263c 73b1 f7bb 99ca 843b 6c7f cc3c
00000140: 65d9 1cbc 17b4 003d cd56 843b f557 683a
00000150: ffe6 823c e2e6 18bc c396 983c c1bb 203d
00000160: 8f4c 533c e703 003d 3f36 8abb 8497 6cba
00000170: 064d a7bb baba aa3c 68c7 93bc f385 643c
00000180: d689 743d 96ae 423c 719e b43c faa6 81bb
00000190: a1a0 dfbc bc8a babc 2d20 80bc c2cd 26bc
000001a0: 3003 b1bc 92b7 bd3c 9a91 02bb 5128 37bd
000001b0: ef7e b53c 7eae fa3b a134 663c 9638 c3bb
000001c0: d5d0 a4bc 7a47 5bbb b041 c63c ef64 c43c
000001d0: 6aa3 3d3d 9691 a1bc 2863 0cbd fc01 563c
000001e0: f582 c03a c2a5 8e3b d56b 5c39 aa43 f43a
000001f0: 3b8c b6bc f126 a0bb 53a0 f83b e1cd 5bbc
00000200: 906a 9bbc 4204 043d 34ab ac3c 06b5 853b
00000210: bd8c ce3c 415b af3c 2819 6fbc 394f 01bd
00000220: e7da b93b c831 793c 6a65 bd3b 7755 ed3b
00000230: 8b90 013d a9ad 82bc a8d5 b23c 43f1 6bbb
00000240: 19ac c2bc 1f74 c43c 3381 05bc 3249 9a3c
00000250: aa00 893c b2c6 3f3c fd80 bd3c 73ac 2e3c
00000260: 1545 903c 05eb 7b3a cb04 ffbc 8164 98bc
00000270: 28dd 843c 10fb 903b 7ddf 45bd fe50 85bc
00000280: 7150 bb3b 7524 75bc 0426 efbc 4916 aabb
00000290: 5172 c0bb 0fd9 cbbb d6c9 0f3d 67db 4eba
000002a0: 0dac 99bb d77b 18bd fe92 5a3d 9ae2 993c
000002b0: 3c19 9b3c e843 a2bc c2f3 fdbb 188c b0bb
000002c0: f04f 44bd f825 eb3c 05f2 e3bb de4e bd3c
000002d0: 1492 9c3b 4d8c 4c3c dcc6 393b 1764 a03b
000002e0: 808b 6fbb 10c7 b5bc 6ffb 8b3c 6850 b1bc
000002f0: d40b 3ebb 1547 4a3c 8b58 0dbb fa56 87bc
00000300: 38a6 dc3c c0ca 17bd 39b8 d43d a6d4 953b
00000310: 6402 ab3c 2c45 afbb 8446 b6bc f81a 40bb
00000320: fbff cfbc cf36 dfbc 9729 f6bb 56be b7bc
00000330: 8375 c43c 4006 68bc b167 3b3c d891 98bc
00000340: 3132 60bc 8379 873c a284 89ba 513c 3abc
00000350: 2128 be3b 1f8f c2bd 4d62 a33c a23e 13bc
00000360: 524f 32ba 4917 a33c 3c12 c03c 7ce1 843c
00000370: 3767 48bd f8fa 4dbc 3f1b 11bc 5f3d 40bc
00000380: 1379 bb3b f8ba cdbb 4883 75bd 9fb3 e03c
00000390: cc22 f83c a28b a63c 5fd5 153b af12 f73c
000003a0: a791 793c 9c79 0abc 7220 153b 7e53 f33c
000003b0: 4c94 8b3b ccd6 c3bb de0f a13c 5640 9ebc
000003c0: 19b3 053b d187 acbc 9634 8cbc bee0 9e3a
000003d0: 582c 713c be44 e6bb 5c3d 11ba 900e f7bc
000003e0: 3f33 28bc 0887 213c e352 093c 1deb c7bc
000003f0: b060 77bb 40c5 ce3b f183 8c3b 8450 f0bc
-0.028249279 0.0009260829 0.027926631 -0.012738751 0.012356879 -0.0009482388 0.019446976 -0.009941929
-0.0028132214 0.014027555 -0.015100859 -0.009760351 0.016258515 0.028740026 0.00833729 -0.045885745
0.0032963713 0.0076513533 0.025024474 0.027636465 -0.040250212 0.02188658 -0.011745984 -0.0064759552
0.026031552 -0.054072734 0.015774742 -0.019883087 -0.0201136 -0.014010623 -0.012129059 -0.007199756
-0.013950361 0.0011100776 0.008067364 -0.011138575 0.024505612 0.011300163 0.019157818 0.033956226
-0.024605084 0.01649257 -0.018602785 -0.0013716655 -0.0013016646 0.014285105 -0.0039341743 0.0202039
-0.018541472 0.019604184 -0.01066067 0.012178489 0.017652322 -0.0031451932 0.015586853 -0.02103965
0.0033776811 -0.008414609 0.024320249 0.003416447 -0.013330818 -0.012716497 0.012928661 0.020795574
0.026033202 -0.004142679 0.008213943 0.01318507 0.010862315 0.0058149756 -0.015319029 -0.010139906
-0.012050469 -0.009718811 -0.007409146 -0.0057168165 0.0101418365 -0.0075589954 0.004052472 0.024963103
-0.009573315 0.031421747 0.004038668 0.0008863204 0.015979288 -0.0093323905 0.018626576 0.039241556
0.012896671 0.03125372 -0.0042178924 -0.0009025263 -0.0051056175 0.020840991 -0.01803942 0.013947952
0.059701763 0.011882445 0.022048207 -0.0039566727 -0.027298274 -0.022771232 -0.015640343 -0.010180892
-0.021607965 0.023158822 -0.001992321 -0.044716183 0.022155253 0.0076501956 0.014050634 -0.0059576733
-0.02011911 -0.0033459351 0.024201244 0.02397391 0.046298422 -0.019722741 -0.03427425 0.013061997
0.0014687466 0.004353256 0.00021021006 0.0018635888 -0.022283664 -0.0048874547 0.0075874715 -0.013415785
-0.018971711 0.032230623 0.02107773 0.0040804176 0.025213594 0.021405818 -0.0145934 -0.031569693
0.005671847 0.015209623 0.0057799118 0.007242854 0.031631988 -0.015951948 0.021830395 -0.0036001957
-0.023763703 0.023981152 -0.008148479 0.01883373 0.01672395 0.0117050875 0.023132795 0.010661232
0.017611066 0.0009609911 -0.031130215 -0.018602611 0.016218737 0.00442446 -0.04830884 -0.016273972
0.0057163765 -0.014962305 -0.029192932 -0.005190645 -0.0058730026 -0.0062209438 0.035104595 -0.000789097
-0.0046896995 -0.037227478 0.05336284 0.01878481 0.018932931 -0.01980777 -0.0077500055 -0.005387794
-0.047927797 0.028704628 -0.006956341 0.023108896 0.004778156 0.012484622 0.002834729 0.004894744
-0.0036551654 -0.022189647 0.017087666 -0.021644786 -0.002899875 0.012346049 -0.0021567668 -0.016520966
0.026934728 -0.03705859 0.103867 0.004572469 0.020875163 -0.005348822 -0.022250421 -0.002931295
-0.025390616 -0.027247814 -0.007512282 -0.022429626 0.023981815 -0.014161646 0.011438296 -0.018624231
-0.013683842 0.016537433 -0.0010491798 -0.01136692 0.0058031236 -0.094999544 0.019944334 -0.008987101
-0.0006801981 0.019908564 0.023446195 0.0162208 -0.04892656 -0.012572043 -0.008856594 -0.011733382
0.0057212203 -0.006278392 -0.059939653 0.0274294 0.03029003 0.020330254 0.0022862775 0.030160276
0.01523248 -0.0084518455 0.0022754935 0.029702898 0.0042596217 -0.0059765335 0.019660886 -0.019317787
0.002040094 -0.021060856 -0.017114919 0.0012121422 0.014720045 -0.0070272377 -0.00055404543 -0.030158311
-0.010266124 0.009858854 0.008381578 -0.024404103 -0.003774684 0.006310135 0.0042881896 -0.029335268

bn1.weight f4 [400]
00000000: 8760 483e c9b9 42bd f387 653d ace1 abbd
00000010: bc86 393e f43c 383f ee0e 3a3c 4e5f 1e3e
00000020: 5f51 043d 7983 c93e 3187 7c3d 20b1 3e3e
00000030: 8ad8 503d 1706 8f3d 40ad 953e 19b5 683e
00000040: cd6e 023f 9d11 193e 311a 8c3e e815 1f3e
00000050: 9eec 213c e5bf dd3d adf6 923e 89ce 263e
00000060: 9ccb 213e b770 453e 07c8 ac3e 4170 2f3e
00000070: d87c 8f3e c354 b93d c820 9c3f 4555 323d
00000080: 7098 b33d 1866 893e 88c7 273e 41bd 813d
00000090: 097a ad3e c6db d93b 6cac 983e 63e5 2e3e
000000a0: ec44 103f 6b42 453e 9fdb a93d 68a3 2d3e
000000b0: df91 e73e e7ff 973e b5c0 153f 8a85 22bc
000000c0: 0344 8b3e 6278 083d 5b57 4fbe d9d2 453e
000000d0: 83aa 9c3e dae3 513f bc3a d33c 43a1 a73d
000000e0: dd08 d13d bdbf 45bc d193 373e df62 993e
000000f0: 22bc ad3e 403f 193e 2f9f 743e 538c 183e
00000100: f0a5 e63e c145 863e 1ad8 8c3e 9c00 c73e
00000110: e656 203e d3e9 313e 48b5 e33e bc17 c43e
00000120: 3cf9 7e3e 263f 0a3e 7e61 793e a361 8b3e
00000130: de9c 713c 05f9 263e 1010 023e 242d e03e
00000140: e757 943c 797f 0c3e f286 1e3e 49a7 833e
00000150: 8994 5abc b301 613e 47d3 593e 2f69 6e3d
00000160: b664 a73e 9da6 c63d fad4 2abd 53ef 6b3e
00000170: 282e 043f 60a4 c23e d0e3 543e 6c82 093e
00000180: 3940 873e a362 c93e 3ab9 1d3c 5871 933e
00000190: 33de 093e 3af7 14bc 210f 9bbc 7574 193e
000001a0: 4f0e 9b3f 4e7e 853f 21f1 8f3d bdd7 023f
000001b0: c01b 8a3d 0536 bf3e 0e99 c83d e9e2 363d
000001c0: 9918 b43e 2037 8c3e ce68 62bc 2bf1 343e
000001d0: e808 813e bcdf 183e 39c3 853e 1654 3f3f
000001e0: a0e0 3e3f e966 803e 6c0b 303e 94b6 453e
000001f0: 6047 543e 9b44 2a3f 960a a73e 56e7 793e
00000200: 3b2d c1bd 3e83 493e 43ee 133e 264a e43d
00000210: a5cc 2f3d 913f aa3b 4f0b b53e 46d4 c53d
00000220: f2a3 af3d 93a6 6c3e b9b6 693e c013 003e
00000230: 561a 2a3e 12be fc3d 2376 093d 5e81 a43e
00000240: 283a 923e 0bbe 863d c5c1 ed3d b91d 893e
00000250: 71fa 9abc 9a8e ab3d 25d3 893e f80f 9a3e
00000260: 3276 323e 599e 0a3e cfc7 ba3e 7807 683e
00000270: c578 0c3f 603c 52bc 571d 893e e01d 093e
00000280: 8d7e cf3e 92d1 e63e 41c1 d83d 6a36 eb3e
00000290: 56ea d43e 578e 8a3d 4c3c 6e3d e24a 863e
000002a0: 5bde 583e 9b93 ae3d 4cfe fe3d 7a61 923d
000002b0: 0d0d ab3e 7c92 393e 7ca1 853d 4b39 853e
000002c0: c010 303f 758a c83e 4120 173f 575a 1d3e
000002d0: 7a3e 3a3e 033f c93e e5dd 443e 7bc6 353e
000002e0: 477b 203e ef6f 003e 8db1 ca3e fd97 893d
000002f0: b4e7 813e 06b2 3f3e 13d5 583d 6503 753e
00000300: d2a9 ff3e f253 923d c22e bd3c f73f 6abd
00000310: fef4 013e a38b 913e 2fb2 d6bc 7c98 943d
00000320: 35ee 383e 2e68 f53c c4ce 013f f48d 053e
00000330: 072a 453f bf54 c63d 90b9 be3e 4fea 563e
00000340: d09d 843e 9d97 853e b2ee ba3a b32b a83c
00000350: c97c d53d fa2b 8c3e 4741 183e 36be ca3e
00000360: 30de 2b3d 53e8 fd3d df11 503e 563e 563e
00000370: abee 85bd c682 663e 05b0 543e 3747 9e3e
00000380: cbae 263e 8444 5b3e f26d ab3e 8a3f 03bd
00000390: 4c50 003e cb34 3c3e 7b34 8a3e 2546 513f
000003a0: f419 733d f728 673e 6ff3 5e3e e2a8 4d3e
000003b0: 1514 283f 1dfd 3a3f 9dc3 5d3e 1e4d 99bc
000003c0: 682e 213f fd46 603e 58b4 6d3e 34ba 603b
000003d0: 2d95 0d3e 0ecd db3e 9a7b 0c3e d20f 2a3e
000003e0: b2d3 5f3e 922d 743e ff14 b83e bd3d 653e
000003f0: 631a 0a3e fecc 0b3f 229b 553e b775 02bb
0.19568072 -0.04754046 0.056037854 -0.08392653 0.18117803 0.7196801 0.011356099 0.15466043
0.032304164 0.39358118 0.061652366 0.18622255 0.050987758 0.069835834 0.29233742 0.22725333
0.5095032 0.14948125 0.27363732 0.155357 0.009883074 0.108276166 0.28703824 0.16289724
0.15800327 0.19281279 0.3374636 0.17132665 0.28024936 0.0904937 1.2197504 0.04353835
0.087693095 0.26835704 0.16384709 0.063349254 0.33882168 0.0066485135 0.29819047 0.17079692
0.56355166 0.19263618 0.082938425 0.16956866 0.45228478 0.29687425 0.5849717 -0.0099195335
0.27200326 0.03331793 -0.20248167 0.19318713 0.3059884 0.819883 0.025784843 0.08185055
0.10206769 -0.01206964 0.17927481 0.29958245 0.33932596 0.14965534 0.23888849 0.1489728
0.45048475 0.26225093 0.27508622 0.38867652 0.15658149 0.17374353 0.44474244 0.38299358
0.24899763 0.13500652 0.24353597 0.27222928 0.014746873 0.16305931 0.1270144 0.4378444
0.018108321 0.13720502 0.15481165 0.25713566 -0.013341078 0.21973304 0.21272002 0.05820578
0.32694024 0.09699748 -0.041707017 0.23040514 0.5163293 0.38016033 0.20790029 0.13428658
0.26416185 0.39333066 0.009626681 0.28797412 0.13463669 -0.0090921465 -0.018928112 0.14985831
1.2113742 1.042917 0.070284136 0.5111044 0.06743574 0.373459 0.09794818 0.044649992
0.35175017 0.27385807 -0.013818933 0.17670123 0.25202107 0.14929098 0.26125506 0.7473768
0.745615 0.25078514 0.17191857 0.1930793 0.20730352 0.66510934 0.32625264 0.24404654
-0.09432455 0.19678971 0.14446358 0.11146955 0.042919774 0.005195566 0.3536019 0.096596286
0.08576192 0.23110418 0.2282361 0.12507534 0.16611609 0.123409405 0.03355993 0.3212995
0.28559995 0.065792166 0.11609224 0.2678049 -0.018918248 0.083768085 0.26918903 0.30090308
0.174279 0.13536967 0.36480567 0.22659099 0.5487178 -0.012831777 0.26780197 0.13390303
0.40526238 0.45081764 0.10583735 0.45939952 0.41585034 0.067654304 0.058162972 0.26229006
0.21178572 0.08524247 0.12450847 0.071474984 0.33408394 0.18122286 0.06524941 0.26020274
0.6877556 0.39168134 0.5903359 0.15366493 0.18187895 0.39305887 0.19225271 0.17751496
0.15672027 0.125427 0.39588585 0.067184426 0.25372088 0.18720254 0.05293758 0.23927076
0.4993425 0.071449175 0.023093585 -0.057189908 0.12691113 0.28426847 -0.026208011 0.072556466
0.18059619 0.029956903 0.50706124 0.13042432 0.77017254 0.09684133 0.37250948 0.20987819
0.2590165 0.26092234 0.001426181 0.02052865 0.104241915 0.273773 0.14868651 0.39598244
0.04195994 0.12397828 0.20319317 0.20922217 -0.06539663 0.22510824 0.20770271 0.30913708
0.16277616 0.21412855 0.3348232 -0.032043017 0.12530631 0.18379514 0.26993164 0.8174766
0.059350923 0.2257422 0.2177255 0.20083955 0.6565564 0.7304247 0.21656652 -0.01871353
0.62961435 0.2190208 0.23213327 0.0034290673 0.13826437 0.42929882 0.13719025 0.16607597
0.21858099 0.23845509 0.3595352 0.22386833 0.13486628 0.5460967 0.2085996 -0.001990659

bn1.bias f4 [400]
00000000: fe80 14be 9738 dc3e b344 8c3e ff5f 023f
00000010: d9d0 14bd 09b0 c9bd 63db 443f c834 6ebd
00000020: 3d0e ac3a f124 2fbc da4a e93e d7eb fcbc
00000030: e9b6 b2bb 73d4 67bc 0c5d 70be b329 d1bd
00000040: 26ae a6bd 4b9c 91bd 4cba 853d 8e07 24bd
00000050: 4804 933e 25d4 2f3b 9a13 31be a892 a5bd
00000060: ff1a 62be 2708 5fbe e92a 9ebd e65e 9dba
00000070: 1cc4 5fbe 9792 52be 6c95 213e cfdd ae3e
00000080: b1df dbbc 7524 8d3e 3dfe 1bbd 1ead 1abd
00000090: f365 3d3e 6637 a9be 72ff 4cbd 15fb b1bd
000000a0: 9162 4abe 4c1b e6bd 6eab cdbb 84c4 00bc
000000b0: 8c86 9c3e b495 033e 661b 6b3d 4e7a 62bb
000000c0: 4bb1 28be 790c a73e 0d05 9a3e 7e24 64be
000000d0: 7682 d3bd 708f 343e 537f a7bb dc0e bb3c
000000e0: f8b0 44be 8e61 f63a 945c 46be c26a c9bd
000000f0: a3bd a43d 43e0 6ebd 0946 b4bd d119 36bd
00000100: 6aa0 e13e fea2 2ebd 5f5e 86be c9e5 ca3d
00000110: d621 843e aafd 8c3c 04e0 02be 36b1 1d3d
00000120: f192 83be e3c9 f4bd 4ac3 223b a61e c9bd
00000130: 945c 5aba 9ca3 f1bc 3174 6d3e e519 253f
00000140: 4029 b53e f60e 0cbe 1a52 2b3c e811 7fbd
00000150: 380f e13e bd95 3d3e d0a2 acbd 980d 093f
00000160: c7a4 523e 2e7b 1bbc 1587 703b 9cac 803e
00000170: c1eb 66be 2baa 4bbd 8f78 9b3e 91a1 a4bd
00000180: 33b3 49bd f84c 0fbe e281 ec3e 6d23 403e
00000190: acfd 073e c08d 8139 c961 9f3e be69 1cbd
000001a0: 398f 4d3e e5a9 c13c a687 1cbc ea4e 95bd
000001b0: 25ea 67be c8f7 973e 1f16 cb3e 42fc f7ba
000001c0: 5ef2 c53e ed6b 96bd 59b3 ec3e 2a0d 953d
000001d0: ae8a 023e 55a8 36be e226 f73d fb92 8cbe
000001e0: ed41 53be 918d cdbb e1f8 88bd 9eed 30bd
000001f0: 969f 153e f1e2 063e 2229 de3d 6c81 483c
00000200: 4950 bd3e 4aca 65bd cdd5 4e3e f73f c6bd
00000210: 0994 9eba 265f e7be b3d4 5cbd c128 79bd
00000220: 4ed6 86bd c719 283d 0913 af3c a5d1 e73a
00000230: c0e0 b63a f7a2 cb3d e63b 8f3e 0767 c63e
00000240: d21d 583e 96fc b9be c442 85bd ba27 2e3d
00000250: 2910 373e e376 32bc 2989 87bc d6ff 8cbe
00000260: a4c8 81bc 2c67 ddbd ba3d 2f3f 038b c0bb
00000270: d355 bbbb 0bf8 573e 3f2e 75be c6a5 a5bd
00000280: 671f 0f3f 8f7e f3bd 0d91 a4be 60bb 2fbe
00000290: c3d4 363e b004 43be 413b e5bc 3146 66bb
000002a0: f59b e13c 4191 d63e edc4 283e 94a1 03bc
000002b0: ad0e 163e 22f5 083d e40c 233f 8877 8f3d
000002c0: 65e2 283c 2044 093f caf3 f53d de1e cfbc
000002d0: 6395 2abd 07b3 63be ecb7 8abd a653 ecb9
000002e0: d016 02bd 557e 36bd c6fe dc3e 2630 e53e
000002f0: 9305 1abe 0c5c 94bd ac12 853e 34ea 9c3e
00000300: 5f1a db3c 2e98 75bc b543 04bd 9388 573c
00000310: 35bf 78bd 1677 4ebe 256c fabd 8bfa c5be
00000320: 6bf6 643b 4019 8d3e 1013 0bbd bb48 0abd
00000330: 1cad 9c3e 8842 4fbc ae2d 6e3e 1bcb 013f
00000340: 70e1 bfbd d9b7 47be 15a2 013b e1c3 1b3f
00000350: dd33 f3bd 28c7 56bc 3228 0f3c a94b 08bf
00000360: accb 913e aa38 97bc 9ddf b6bd a4e1 1fbe
00000370: c1b3 d339 0518 5abc 305a 163a e14f 4f3e
00000380: 1a1c dcbd 5857 033f 97eb 073f da3e 6c3e
00000390: 70c2 433d a763 e7bc a257 fb3c b906 ecbd
000003a0: 9f90 9fbc 37ae 8fbd 8932 1d3e 45d1 0dbe
000003b0: 9b84 15be 1440 ec3c 909c 09bb b3d6 a03e
000003c0: 62fb bb3c e63b cbbc 6d3a 05bc ee6f c83e
000003d0: 054c c13e a202 973e 8b29 e2bb f9d3 bfbd
000003e0: 9be0 a0be b4b0 483d 98a9 173e a3e4 29be
000003f0: edf2 173d e412 033e 985d 80be 3cad 36b9
-0.14502332 0.43011925 0.27396163 0.5092773 -0.036331985 -0.09848029 0.7689726 -0.058155805
0.0013126802 -0.01068996 0.4556492 -0.030874176 -0.0054539335 -0.014149773 -0.23472995 -0.102130316
-0.08138685 -0.07109889 0.06529674 -0.040046267 0.28714204 0.002682933 -0.17292634 -0.08084613
-0.2208061 -0.21780454 -0.07723028 -0.0012006431 -0.21852154 -0.20563732 0.15779656 0.34153602
-0.026840063 0.27566877 -0.038084257 -0.037762754 0.18495922 -0.33050078 -0.0500483 -0.08690468
-0.19764163 -0.11235675 -0.0062765395 -0.007859353 0.305714 0.12850076 0.057399176 -0.0034557763
-0.16473882 0.32626703 0.30081978 -0.22279546 -0.10327618 0.17632842 -0.005111614 0.022834234
-0.19208133 0.0018797384 -0.19371253 -0.098348156 0.08043983 -0.05831934 -0.08802421 -0.044458214
0.440677 -0.04263591 -0.26243874 0.09907109 0.25807065 0.0172108 -0.12780768 0.03849908
-0.25698045 -0.11952569 0.002483564 -0.09820299 -0.0008329835 -0.02949696 0.23188855 0.64492637
0.35383034 -0.13677582 0.010456586 -0.062272936 0.43956923 0.18514152 -0.084294915 0.5353637
0.2057067 -0.009489818 0.003670161 0.2513169 -0.2255087 -0.04972283 0.30365416 -0.08038629
-0.049243163 -0.13994205 0.46192843 0.18763514 0.13280362 0.0002471041 0.31129292 -0.03818678
0.20074166 0.023640582 -0.0095538255 -0.07290442 -0.22647913 0.2968123 0.39665315 -0.0018919783
0.38661474 -0.07344804 0.4623058 0.072779015 0.12748215 -0.17837651 0.12067963 -0.27455887
-0.20630617 -0.0062729795 -0.06688095 -0.04319536 0.14611658 0.13172509 0.10847689 0.012237888
0.36975315 -0.05610112 0.20198746 -0.09680169 -0.0012098561 -0.4518978 -0.053913783 -0.06082988
-0.06583844 0.04104021 0.021371381 0.001768638 0.0013952479 0.099431925 0.27975386 0.3875048
0.21105126 -0.3632552 -0.06506875 0.042518355 0.17877258 -0.010892603 -0.016544895 -0.27538937
-0.015842743 -0.10810694 0.6845356 -0.0058759465 -0.005717018 0.21090715 -0.23943423 -0.080882594
0.5590729 -0.118893735 -0.32141915 -0.17161322 0.178546 -0.19044757 -0.027982356 -0.0035137052
0.027540186 0.41907695 0.16481371 -0.008034129 0.14654036 0.033436902 0.63691545 0.07005221
0.010307883 0.53619576 0.1200939 -0.025283273 -0.041646373 -0.22236262 -0.067733616 -0.0004507575
-0.031760037 -0.044554073 0.43163127 0.44763297 -0.15041189 -0.07244119 0.25990808 0.30647433
0.026745973 -0.014989896 -0.032291133 0.01315512 -0.060729224 -0.20162615 -0.12227658 -0.38667712
0.0034936916 0.27558327 -0.033953726 -0.033760767 0.30600822 -0.01265014 0.23259613 0.5070054
-0.09369171 -0.19503726 0.0019780446 0.6084576 -0.118751265 -0.013109006 0.008737611 -0.5324045
0.28475702 -0.018459637 -0.089293696 -0.15613419 0.00040378983 -0.013311391 0.0005735485 0.20245315
-0.107475474 0.5130515 0.53093857 0.23070851 0.047792852 -0.02824576 0.030681435 -0.1152472
-0.01947814 -0.07015651 0.15351309 -0.13849361 -0.14601366 0.028839149 -0.002099786 0.31413803
0.022947017 -0.024808835 -0.008131606 0.39147896 0.3775331 0.29494196 -0.006901925 -0.093666025
-0.3142136 0.048996642 0.14810789 -0.16591124 0.037096906 0.12800175 -0.25071406 -0.00017421407

bn1.running_mean f4 [400]
00000000: 6e29 353f ad5b 863a 320b 0a3e 0137 a73a
00000010: 2da3 173f 4541 0e3f a908 7b3a 42e9 c73e
00000020: 609e 423c 2deb dd3f 1578 393a fd1d 513e
00000030: 2af9 863c c8ec 123a 73b3 b93e f8e9 ba3c
00000040: dc49 ac3d 1157 973d 8794 0b3e c77b 533e
00000050: 1c76 8b3c 65b4 283c 043c 833d f508 183d
00000060: 438a 973c 350e 453c 9539 193d d635 de3d
00000070: 532e 9e3e 2226 013d 2d36 613e 4a6a 223f
00000080: 22a8 963d 7a4c 723f 9d8a 453f 7908 af3a
00000090: bf2c 4e3f 844e d93a a8d1 833d 21c6 b83d
000000a0: 9683 a03f 9ddb 613c ab6d ce38 bdb0 053e
000000b0: 7d46 3a40 bba8 5e3e 7992 6b3e c65a cd34
000000c0: 2a1c 7c3f 61f5 4c3f a611 383a 2a3f 993e
000000d0: c581 1a3f 8f01 2c3f fc1d 023a 8883 fc3d
000000e0: 489f fc3c 959b 363d 38a9 823d 2314 f43c
000000f0: 18f7 c63e c39f a83d 3571 1d3e 172c f53b
00000100: d54a 2c40 2b5c 693d 62a8 033f 50e4 293f
00000110: c34b 2e40 0e2e 303e 0072 2a3d a7c3 823f
00000120: 108e 023d ecbc 5a3d b0ba 2a39 1b18 fd3c
00000130: d090 e13a 4fb9 8b3a 3fe8 603f eb7c 3840
00000140: d77a c33f 293e ed3c a92e 9e3d 2cea e23e
00000150: 1747 123d 8484 ca3f ead3 223a 770d 983e
00000160: 905d 8a3e 5fd7 783c 6d0d 0d3d 5685 5840
00000170: 3610 4e3e cdeb ae3e 33db 2f3f 73fe 3a3c
00000180: ca29 673d 8270 013e 547d b23c 3137 bf3f
00000190: 4681 8f3d e48b 8e3b 9879 a937 265c 013d
000001a0: 18ac 303e c7b0 343f c0b9 9b3c 4756 2f3d
000001b0: 8a2d 633d 4c50 4040 d5ea 1034 f12a 8838
000001c0: 81ce d93f 6dd8 4e3e be34 602d 9efe 6a3e
000001d0: e1f6 053e 17e2 6e3c 9527 193f c698 793e
000001e0: 70a1 f63d 1019 8d3d 05ac 0b3d 530c ed3c
000001f0: 5ae1 9e3f 433a 8e3d f141 823e c9fa 003e
00000200: 60f4 9d37 39f4 ed3c 344e 183f dedf 943c
00000210: 1f63 013b c962 fa39 4e3d b33d 1fdc 013e
00000220: ccc8 0139 354b e63d cf6a 723e 2614 d43d
00000230: f425 8439 62ae ab39 15a5 9b3d a963 943f
00000240: aaaf 8d3e 8d13 953f 9c29 be3e 1026 cf3d
00000250: cb89 b93d cfae 813b 6ec0 5b3e becf d43d
00000260: 593a 3c3d 5b20 883e 0565 0640 8e32 5b3c
00000270: fc4d 853d d63b c139 2c3f bf3f cb41 343a
00000280: e97b e83f 7b60 e83f 3e18 073c 55c6 793e
00000290: d786 903d 0873 0739 617a 6c3a d13a 0224
000002a0: 5171 263f a99d 2a3f 9400 153e b680 123d
000002b0: b434 193f 199f 2f3d c26f 4939 5f13 5f3e
000002c0: ab45 503e 7ee5 4840 1b58 fc3e dc5d 513d
000002d0: e233 ac3e 25f6 243e b2df 2f3d a5f6 2738
000002e0: 87bf a331 4248 ed3d 58a2 4e40 0f25 d73e
000002f0: e400 c83d 3880 da3c 40e6 d03e 42cd 223f
00000300: 2f82 0a3f 6051 083a dbad 2038 4dfc e53c
00000310: 9468 b13c 7dbc 8d3d 0270 b439 b936 1a40
00000320: aea0 343f 1262 7e3e 9406 653d 960c ea3e
00000330: 1af3 e63e 88eb 0f3d 136a 5d3f 227c 4240
00000340: f10b 063e 1d5c cc3d 8607 393e f707 0b38
00000350: 5867 563f 2eb0 de3d b01b 0f3d 159e 863e
00000360: ad70 753f 0503 ea3c 1415 373a f196 0e3d
00000370: c49c bb36 e941 a93e 26e5 6b38 f7ee bb3f
00000380: f622 843d 2984 ca3d 317b c63f eaab 803a
00000390: 2029 193f 7c7a 093d be6f 1a3d 2601 bb3d
000003a0: 8a7b 4c3c c3e2 b43e f493 8b3e 9070 a73c
000003b0: f60d e73e d61c 2f3f 5f04 2d3d f7b4 c039
000003c0: 91e0 343e 06c4 363d 5718 333d 0262 1e3a
000003d0: bf28 713d 3d30 563f 9047 d83d 2802 673c
000003e0: df82 bd3d 26ef 9d3d d31d 003e 0beb 9e3d
000003f0: 3b51 013e 59d7 6a3f 6284 b13c 02b5 043d
0.7076634 0.001025071 0.13480833 0.0012757481 0.5923336 0.55568343 0.00095761806 0.3904515
0.01187858 1.7337395 0.00070750836 0.20421596 0.016476233 0.0005604741 0.3626972 0.022816643
0.08412525 0.073896535 0.13630877 0.20652686 0.017024092 0.010296916 0.064079314 0.037117917
0.018498546 0.012027313 0.03740843 0.10850112 0.30894718 0.031530507 0.21993323 0.63443434
0.073562875 0.94647944 0.7716463 0.0013353965 0.8053703 0.0016579186 0.06436473 0.09022165
1.2540157 0.01378527 9.843273e-05 0.13055702 2.9105523 0.21744053 0.23005094 3.8250272e-07
0.98480475 0.8006192 0.0007021673 0.29931003 0.6035426 0.6718988 0.00049635745 0.12329775
0.03083767 0.04458197 0.06379932 0.029794758 0.38860393 0.08233597 0.15375216 0.0074820626
2.6920674 0.056972664 0.51428807 0.66364 2.7233741 0.17205068 0.041612625 1.0215958
0.031873763 0.053402826 0.0001628201 0.030895283 0.0017209295 0.0010660085 0.8785438 2.8826244
1.5271863 0.028960304 0.077237435 0.44319284 0.035712328 1.582169 0.0006211387 0.29697773
0.27024508 0.015188067 0.034436632 3.3831382 0.20123371 0.34164277 0.68693846 0.0114132045
0.056436338 0.12640575 0.021788277 1.4938718 0.07007079 0.0043501724 2.0202991e-05 0.03158202
0.17253149 0.7058224 0.019009471 0.04280689 0.05546335 3.004901 1.3496476e-07 6.492984e-05
1.7016145 0.20199747 1.2744637e-11 0.22948691 0.13082458 0.014580271 0.5982602 0.24374685
0.120425105 0.06889546 0.034099597 0.02893654 1.2412522 0.06944706 0.25440934 0.12595667
1.8829654e-05 0.029047118 0.5949433 0.018173154 0.0019742919 0.00047757316 0.08751927 0.12681626
0.00012377201 0.11244813 0.23673557 0.103554055 0.0002520528 0.00032745587 0.07599846 1.1592914
0.27673084 1.1646591 0.3714112 0.10114682 0.09059485 0.0039576064 0.21460125 0.10391186
0.045954082 0.26587185 2.0999157 0.013378752 0.06509015 0.0003685641 1.4941154 0.0006876259
1.8162814 1.8154444 0.008245526 0.24392064 0.07056969 0.00012917456 0.00090209214 2.8239076e-17
0.6501666 0.6664682 0.14551002 0.03576728 0.59846044 0.042876337 0.00019210487 0.21784733
0.20339076 3.139007 0.4928597 0.051114902 0.33633333 0.16109522 0.04293794 4.004561e-05
4.7656985e-09 0.11586048 3.2286587 0.4202046 0.09765795 0.026672468 0.40800667 0.6359445
0.54104894 0.0005200114 3.8308888e-05 0.028074408 0.021656312 0.06920717 0.00034415728 2.40959
0.7055768 0.24842098 0.055914477 0.45712727 0.45107347 0.03513673 0.8648998 3.0388265
0.13090493 0.09978507 0.18069276 3.31476e-05 0.8375144 0.10873447 0.034938514 0.26292482
0.95875055 0.028565893 0.0006984037 0.034811918 5.591284e-06 0.33058098 5.6241777e-05 1.4682301
0.06451981 0.09888489 1.5506345 0.0009816859 0.59828377 0.033564076 0.037704222 0.091310784
0.012480626 0.35329255 0.27261317 0.020439416 0.4512784 0.68403375 0.042240497 0.00036755923
0.1766379 0.044620536 0.043724384 0.0006041826 0.05887675 0.83667356 0.105605245 0.014099635
0.09253477 0.077116296 0.12511377 0.07759675 0.12628643 0.91734844 0.02166957 0.032399185
